models/gesture_model.v1.pt (torch, 268499 bytes, 10 tensors)

lstm.weight_ih_l0 f4 [256, 63]
00000000: 7603 4fbd 1c7f 9a3b 46a6 5abd 7a1e a83c
00000010: 047f debd fde2 6f3e c1e0 c33d 37f0 083e
00000020: 9aa5 9c3d bcdf 9e3d 379e b03d 3cb8 5b3e
00000030: 3d2c f7bc 5b03 b73d ccb9 073d a8ac 5dbd
00000040: 410c 1e3e a883 cfbd dc33 8cbd 1949 923d
00000050: e09f c03d c039 733d 37c1 173b 0499 ac3d
00000060: 0977 253d f977 913d 00a9 3c3e cc81 18bd
00000070: 93fd 2b3d 930c 9bbd 765a 9dbc ed7b 0a3e
00000080: fcf1 c93d e1f9 3d3e 832c 6c3d fb1f 89bd
00000090: 7661 27bd d65a 2cbd 3a72 f3bb 68e2 17bd
000000a0: f415 81bb 8d43 f23d 4631 873d 0d72 ecbc
000000b0: a8dd db3d 69ca db3c bf0b da3d b82f 42bd
000000c0: 903d 1b3d 2e64 2bbd e258 cb3d 71c7 05bd
000000d0: 628f 8f3d f251 a3bd c0fd 013e 5c8e d9bb
000000e0: 31a2 403d 5859 5c3d d1b2 2fbd f0d6 ad3c
000000f0: 2d11 df3b 5f53 973c 3f67 11bd 2e3c 313e
00000100: 1aef 0a3d e2c4 2abe 6c0a fa3d 08a6 d2bd
00000110: 478b f13d 52fe 1d3d d6e1 c73d 9280 843e
00000120: 1ba2 113e 4505 94bd 32d5 1a3d 56c3 a4bd
00000130: 0b8f 7d3d a9e6 933d 400c 333d 14f8 a03c
00000140: 2d74 6ebd 729e fe3d 91b4 2b3b 6913 0cbe
00000150: a187 1ebd a5f8 9f3b 49ef 69bc 77b5 943d
00000160: 6e2c f1bd 9ee6 013d 1ae0 91bd 3d78 88bc
00000170: ec6f 1dbe b4be 023e 1313 a3bd f03c b9bd
00000180: 707d 8e3d a94e f53d e979 a5bd 458e b93d
00000190: 23c7 733d ce3f f2bd 80ff 723d 013e b7bd
000001a0: d71a 94be a218 57bd c130 3f3d a54d 83be
000001b0: c4b4 a13a 49ae d6bd 76f0 1dbd bd9c bdbd
000001c0: 2f8d 2e3b d41b b7bd 371f bf3c 621f a6bd
000001d0: 6288 70be 198b 61bd 2f0f 89bd 2732 b2bd
000001e0: 3f4f d93d b1ff acbd ae3d 5fbe fc8b e03d
000001f0: 35e5 2ebc 9a5e 44be 6f7f 7c3d ecc7 033c
00000200: d8b5 a23d 10a9 17bd f8cc 8ebd e103 ecbe
00000210: ad5d 733d b0cc bb3d 175d 01bf f8d3 843c
00000220: 6efa aebd ef9d eabe b727 3cbc b214 a5bc
00000230: c050 e9be 97b3 01be c40c ce3b 93b6 4bbe
00000240: a822 44bc f896 943d fe88 f9bd d44d 87bd
00000250: 7609 1cba e69e 21be e335 a1bc 41f8 f2bd
00000260: c23f 47be 6578 04bd b272 0ebd 7b30 9a3e
00000270: e9db 21bd d73c 883d d80c 9c3e 0043 36bd
00000280: 7065 b63c 9ac9 473e 9d81 09be bb35 b93d
00000290: eca1 243d 2677 123d 2a7a ea3d 6bf3 823e
000002a0: dc63 13be d445 91bd d860 933e 409f 513d
000002b0: 17bb dbbd d6c4 8e3e 23d4 97bc 2e7e 91bd
000002c0: 1c69 6cbb 5084 523d c973 b9bc ae6f 833e
000002d0: 233b 1cbe 7603 453d 58c3 4c3e 10ce e1bb
000002e0: 744d e1bd aa42 8c3e 9152 70bd 1c52 0dbd
000002f0: ed91 0f3e f51e bdbd 5268 183e f605 62be
00000300: 145d 033d 0948 063d dc8e 5abd 3f66 67bd
00000310: 0801 fc3d 2e0a 15bd 0370 f93d c01d 51bd
00000320: e91d 77bb 361e 423d 956d 033e 85f8 cd3d
00000330: 0cb4 8bbd 1395 b23d 9e95 983d be44 f9bc
00000340: 6512 adbd a2dc aebd 403b 593d a11a bfbb
00000350: 5e48 16bd 16c8 183e 8bc9 9c3d 0a67 ab3d
00000360: f34c 61bc 3509 153e c000 02bd 929f 713d
00000370: 1434 963d 7d8b d23d 175c a13c 30e2 b2bc
00000380: 4f8f bc3d 7fa7 303e f7d9 833d 1533 6f3d
00000390: 8b93 d5bc 0312 713d d2fe 99bd 23e2 093c
000003a0: 7445 27bd f812 053e b033 973d 51a0 ec3c
000003b0: c30a 47bd e101 43bd 210d 1c3d 0d58 6d3b
000003c0: 1152 003d 9c0b 66bd 6a02 9ebd af79 2b3d
000003d0: 2db3 0b3e a815 5b3d aa5f 08bb 6a4a 263c
000003e0: ea5c e53d 47f7 163e d352 b5bd 6b02 e03d
000003f0: 334c b13d 221b 5bbd d2f3 3fbe ae30 3cbd
-0.05054041 0.0047148596 -0.053381227 0.020522345 -0.1086407 0.23426433 0.09564353 0.13372885
0.076487735 0.07757518 0.08623927 0.21456999 -0.030172462 0.08936187 0.033136174 -0.054119736
0.15434362 -0.10132533 -0.06845829 0.071428485 0.09405494 0.059381247 0.0023155937 0.08427623
0.040396724 0.07102961 0.18423843 -0.03723316 0.041989874 -0.07570758 -0.019208174 0.13523836
0.09860608 0.18552352 0.057659637 -0.06695553 -0.04086443 -0.042078815 -0.0074293884 -0.037081152
-0.0039393846 0.118292905 0.06601195 -0.028862977 0.10735637 0.026829915 0.10646772 -0.04740879
0.037900507 -0.041843586 0.099290624 -0.032660905 0.0700977 -0.07974614 0.12694454 -0.006639285
0.047029678 0.053796142 -0.042895142 0.021220654 0.0068074674 0.018472372 -0.035498854 0.17308113
0.03391943 -0.16676667 0.12209019 -0.10285574 0.11794143 0.038572617 0.09759872 0.2587934
0.14221995 -0.072275676 0.037800975 -0.0804507 0.061903995 0.07221729 0.043712854 0.019649543
-0.058216263 0.12432565 0.0026200155 -0.1367928 -0.038703565 0.0048819357 -0.014278241 0.07261174
-0.117760524 0.031714074 -0.07122822 -0.016658897 -0.15374726 0.1276806 -0.079626225 -0.09044826
0.06957519 0.11977894 -0.08079893 0.09060339 0.059516083 -0.11828576 0.059325695 -0.08947373
-0.28926727 -0.052513726 0.046677355 -0.25645176 0.0012337198 -0.10482461 -0.0385594 -0.09258411
0.0026634445 -0.08940855 0.023330314 -0.081114545 -0.23489526 -0.055064294 -0.06692349 -0.08700972
0.10610818 -0.08447207 -0.21800873 0.109642 -0.010674764 -0.19176713 0.061644968 0.008043271
0.0794484 -0.037026465 -0.069726884 -0.4609671 0.059415508 0.091699004 -0.5053267 0.016214356
-0.085438594 -0.4582362 -0.011484078 -0.02015147 -0.4556942 -0.12666164 0.006288143 -0.19893865
-0.011971153 0.072553575 -0.12184332 -0.066066414 -0.00059523375 -0.15783271 -0.019679016 -0.11863757
-0.19457915 -0.03234138 -0.03477735 0.30115113 -0.039516363 0.06652229 0.3047855 -0.04449749
0.022265166 0.19510499 -0.1342835 0.090434514 0.040193483 0.03575816 0.11449082 0.25576338
-0.14393562 -0.07093397 0.28784823 0.051177263 -0.10729044 0.2788455 -0.018533772 -0.07104145
-0.0036073392 0.051395714 -0.022638218 0.25671142 -0.15256934 0.048099004 0.19996393 -0.0068910196
-0.11001101 0.2739461 -0.05867249 -0.034502134 0.1402051 -0.0923442 0.14883545 -0.22072586
0.032071188 0.03278354 -0.053358898 -0.056493994 0.12304884 -0.03638666 0.12179568 -0.051053762
-0.0037707037 0.047392093 0.12834771 0.10057167 -0.068214506 0.0871984 0.07450412 -0.030428287
-0.08450774 -0.08538176 0.05303502 -0.005832032 -0.03669011 0.14920077 0.07655629 0.083692625
-0.013751256 0.14554293 -0.031738997 0.05899007 0.07334152 0.102805115 0.019697232 -0.02183637
0.092070214 0.17251395 0.06438058 0.058398325 -0.02607133 0.058855068 -0.07519306 0.008415732
-0.04083772 0.12995517 0.073829055 0.028885039 -0.048594248 -0.047609214 0.03809846 0.0036215812
0.031328265 -0.056163415 -0.07715304 0.041864093 0.13642569 0.05348745 -0.0020808973 0.010149578
0.111993626 0.14742766 -0.08853688 0.10937961 0.08657112 -0.053492673 -0.18745354 -0.045944862

lstm.weight_hh_l0 f4 [256, 64]
00000000: bcaa df3d cb92 18bd a71c 1cbe 37d5 433c
00000010: 863f d23c 3985 f13d 246c 983d b868 97bb
00000020: 16fc f2bb a34a 26be 24e6 28bd 36e5 9fbd
00000030: 86ce cb3b 8fce 083e 677f 80bd 88fe efbd
00000040: 8952 553d 300a 373c d719 ce3b 8988 bdbc
00000050: e981 ec3c a9d6 273e 3f90 ddbd 770b 433c
00000060: 6a7b 0d3e c3a1 febb d947 6d3d e6ae 093e
00000070: 377b 0abe b0ae 833d ec8f fcbd c865 bfbc
00000080: 7518 0abe 7f16 a2bd b293 e3bd 4328 0a3e
00000090: 9231 283d 32e0 85bd 6aef ebbd 29bd cc38
000000a0: 81ce cfbd 41fa b13d e8b3 ffbd 291a ce3d
000000b0: bbb3 adbb 3001 133e 3d96 603d e297 1abe
000000c0: c137 c4bd e8cb bdbc 70fb ddbc 25a5 b4bd
000000d0: 867e 2e3d 0bcf c63c 2e9c 163e ead2 9b3b
000000e0: c731 e6bd fd22 e63d 8860 283d 87eb 10be
000000f0: 1d9a c3bd 343c babb 7f8c 69bd 0a6e 8bbd
00000100: adfe 063c 80ec f43d acf9 a93d b255 a6bd
00000110: 6c8b e3bd 0a65 40bd cd9f 593d 4d7f 47bd
00000120: 7001 9bbd 5aab dcbd 9b9a ee3d cad7 31bd
00000130: 8369 20be 8cef 803d 22b8 81bd bb0e e03d
00000140: 846b 26bd 366c 683d 84d6 623d 5888 c13d
00000150: 9fbb da3d c0d6 013e 4e9a 683d 2d6c e8bc
00000160: b370 1e3e 8116 72bc d530 a63d d2ae 4dbd
00000170: 88ba 9e3d 7f9f 0fbe fe68 813b de7b ecbd
00000180: 0e97 b0bc 76ed 80b9 3621 d03d efbc 953d
00000190: 95a8 233d c9a1 0f3e ef91 aebd bf2b 62bb
000001a0: 6f62 7a3d a73d eb3d dc1e b53d 20f4 34bd
000001b0: 9ffd 1a3d cb19 93bd 3657 573d 7510 c93d
000001c0: 45fb cabd 4bc9 3f3d 1cc4 cc3d 49b6 cb3a
000001d0: e4a2 923d e064 8c3d 21d0 babd cf29 04be
000001e0: 03f9 22bc 3ce3 63bd e733 00bc 1147 ceba
000001f0: b1f7 203d d3fa 07be 8581 a4bd 36f6 cabd
00000200: 4b2b 1dbd cbe7 633d 7807 803d b13a 10be
00000210: 2e97 9b3c 643b 1e3d 6e1a 48bd e998 083d
00000220: b3c5 b03d 06d6 77bc ea62 fcbd 0a6c 7dbd
00000230: 84fa acb9 6653 563d bb7d d63d 532c f0bd
00000240: 15be e5bc e6eb b23d b93e 74bd 6eff bb3b
00000250: fb35 2abd 2f77 8ebd 4ad4 d93d fdce 2d3e
00000260: e5ef 883c f8ad 2e3d b1ec c23d 6ae6 e43d
00000270: 089f 34bd dc9c 843a 12ef a5bd cb91 ef3d
00000280: 95e4 be3d 9b82 bebd a358 bf3c cdd5 c1bc
00000290: a56b de3c e580 dabc d378 0b3e 8c51 993d
000002a0: b3ab e63c 9760 d3bd 0d68 b5bd 4e9e 1b3d
000002b0: ebff 32bb 413f ba3d 5238 133e cc2e 1bbe
000002c0: 20f9 52bb d704 943c deec 313d 1b7a 543d
000002d0: db7d 133d 784a d33c 5cea 54bc 04da e53d
000002e0: ef10 d6bd c32a c7bc 0620 c5bc 6068 d3bb
000002f0: 4f5e 943b 3aaf 053d aede 9c3b 26a9 53bd
00000300: 7ac2 8d3c d7b7 c13d 0ca4 ff3c 4f09 8abd
00000310: 1948 ec3a e4c7 b5bd f323 053e 4b20 cfb9
00000320: 447e b43c 7c25 0fbd a2cd 82bd 4e99 f9bc
00000330: 6a35 173e cb9e 563d 662d 8c3d 1b75 3bbe
00000340: e1e9 203e e94b 25be 5fdf f2bd 4da1 293d
00000350: 91fa d63d 672c d0bd 8584 86bd 170c 22be
00000360: 96ad dbbc e9da 423d 68f7 b6bd ff61 713d
00000370: 23c2 b03c 4c2b b2bd a4d9 a43b fcc7 7bbd
00000380: ad7a 883d 6d41 9cbd ccc7 ae3d ee3c 9cbd
00000390: 5f46 693d 2b2f acbd 9feb c5bd 1a28 25bd
000003a0: 35f0 10be 7a58 b7bd 47bb 54bd af9a 92bd
000003b0: d285 f03d c69e 173e f777 ba3d 739b 67be
000003c0: 7b8c 27be 8185 c73c fe56 16bd 52e4 25bd
000003d0: 5aaa 94bd eb9d 6fbc d82b 983d d4f5 a7bc
000003e0: 2706 913d 8c62 4cbd e4db cebc 0653 a9bd
000003f0: 2eaf b5bd 100d e23d 6ebe dcbc 736c 623c
0.10921237 -0.037249368 -0.15245305 0.01195269 0.025665056 0.11792988 0.07442501 -0.0046206377
-0.007415305 -0.16239409 -0.041235104 -0.078073904 0.006219688 0.13360046 -0.062743 -0.1171847
0.052080665 0.0111718625 0.0062897014 -0.023136394 0.02887054 0.1639048 -0.108185284 0.011904589
0.1381661 -0.0077707483 0.057929847 0.13445625 -0.13523565 0.06429803 -0.123321384 -0.023363963
-0.13485892 -0.07914447 -0.11112155 0.13491921 0.0410629 -0.065369025 -0.11520274 9.762712e-05
-0.10146809 0.0869031 -0.12485486 0.100635834 -0.0053009666 0.14355922 0.05483078 -0.15097001
-0.09580947 -0.02316852 -0.027097434 -0.08820561 0.04260113 0.024268648 0.14708015 0.0047553675
-0.11239963 0.11237142 0.041107684 -0.14152347 -0.09550879 -0.0056834463 -0.057018753 -0.06808098
0.00823943 0.11959171 0.08299574 -0.08121814 -0.11110577 -0.04697136 0.053130914 -0.048705388
-0.075686336 -0.1077487 0.116505824 -0.043418683 -0.1566525 0.0629569 -0.06333949 0.109403096
-0.04062988 0.056743823 0.05538036 0.09449834 0.10680317 0.12679577 0.05678778 -0.028371895
0.15472679 -0.014775873 0.08114783 -0.05021555 0.07750422 -0.14025687 0.0039492836 -0.11547063
-0.021556403 -0.00024590985 0.101625845 0.07311427 0.039955694 0.1402656 -0.085239284 -0.0034510938
0.06112903 0.114863686 0.088437766 -0.04417813 0.03783953 -0.07182654 0.052573405 0.09817592
-0.09911207 0.046822827 0.099983424 0.0015541996 0.07159975 0.06855178 -0.09121729 -0.12906574
-0.009947064 -0.05563663 -0.0078248745 -0.0015737732 0.039298717 -0.13279276 -0.080325164 -0.09910242
-0.038371366 0.055640977 0.062514246 -0.14084889 0.018992987 0.038630858 -0.04885333 0.03334895
0.08631458 -0.015126711 -0.12323554 -0.061870612 -0.00032993045 0.05232563 0.104732 -0.11727204
-0.02804474 0.087364 -0.05963013 0.0057372367 -0.041555386 -0.06956326 0.10636194 0.16973491
0.016715953 0.04264638 0.095178016 0.111767605 -0.044096977 0.0010117549 -0.0810224 0.1169773
0.09320942 -0.09302255 0.023357695 -0.023661518 0.027150938 -0.02667279 0.1362031 0.07486257
0.028158044 -0.103211574 -0.08857737 0.037992768 -0.0027313184 0.09094096 0.14376953 -0.1515457
-0.0032191947 0.018068714 0.043438785 0.05187426 0.036008697 0.025792345 -0.012995329 0.11223224
-0.104524486 -0.024312383 -0.024063122 -0.0064516515 0.004527844 0.032637812 0.0047872877 -0.051674984
0.017304648 0.09458893 0.031206153 -0.06740057 0.0018026858 -0.08876017 0.13001995 -0.00039506177
0.022032864 -0.034947857 -0.063868776 -0.03046861 0.1476647 0.05239753 0.068445966 -0.18306391
0.15714218 -0.16142239 -0.11859011 0.041413594 0.104970105 -0.10164719 -0.06568245 -0.15824924
-0.02681617 0.04757205 -0.08933908 0.058931347 0.021576947 -0.086996645 0.0050308276 -0.061470017
0.066640235 -0.076296665 0.08534202 -0.07628809 0.056951877 -0.08407434 -0.09664082 -0.040321447
-0.14154132 -0.089524224 -0.051936414 -0.0715841 0.11744274 0.14806661 0.09104913 -0.22617893
-0.16362183 0.024355652 -0.036704056 -0.040500946 -0.072590545 -0.014625053 0.074302375 -0.020502962
0.070812516 -0.04989867 -0.025251336 -0.082677886 -0.088713035 0.11037648 -0.026946273 0.013819802

lstm.bias_ih_l0 f4 [256]
00000000: 41f3 813d f667 8cbd 1ed9 743d 729c 193e
00000010: d518 73bc c2ae febc b796 9f3b c958 0cbd
00000020: 31d4 a8bd 7a94 0f3d 9ae4 a2bd cb5a 02be
00000030: 153b 8cbc 10e2 ef3d 92b3 d73d 60cb aebd
00000040: 06b4 afbd b554 f73d 8b1e 4e3c 0aad b9bd
00000050: 4e2a abbd 1e90 b83c 327a 263d c945 a0bc
00000060: 9050 3c3d 1e44 acbd 29ce c13d 22ef 81bd
00000070: 7d77 04be afc9 813c 2646 ea3d 0bf0 bb3b
00000080: f985 e4bd e76a e6bd 456b 05bd 7493 06bd
00000090: afaf 293d 9713 0c3d 3232 f33c c1c9 183c
000000a0: 1ba1 0cbd 84a5 a7bd 2a15 adbd 9c03 fc3d
000000b0: 4bba c2bd b93e e6bc 6d2d 75bd 5315 7d3d
000000c0: c486 7f3d f520 92bd 82ea 073e 01ba 9abd
000000d0: bd89 9bbd 6e7b 21bd 216a b83d d951 083e
000000e0: 206d 3cbd dee9 d1bd ca61 ccbd 9e14 183d
000000f0: 5cfe b8bc f7ad f93d 6e2e 173e 83ae 96bc
00000100: 160a 5fbd 2d2d 10be 4d50 ea3d c71d b23d
00000110: db72 2bbd 0f22 e23b 8b1d 17bc a920 35bd
00000120: a04d 273d 62d9 8fbd 6191 253e 78c8 d93d
00000130: 5861 ca3c 821c f93d 3060 6d3c be43 253e
00000140: a80d ca3d cb6b 063e 646a cabd bd9d 02bc
00000150: e373 9b3a 4be1 0a3c fc7c d13c f04f fe3d
00000160: 0b3b a6bd c402 ac3d 91aa 61bd b175 573d
00000170: 4d9e f73d b789 583d 578e 0cbd 6368 813d
00000180: 7677 e1bd 41bb f6bd e3ae aa3d 002a 183e
00000190: 4715 11bd 40b5 df3d 1a88 c9bd 1b81 8cbd
000001a0: 93a1 4ebd d931 0d3e 69ec 97bc 1b0a 043c
000001b0: 2131 0e3e 319b d1bd 4c2f 5fbd 131b 77bc
000001c0: d81e c3bb 87f5 063d d924 9f3d 1319 ff3d
000001d0: dc57 c83d 8f39 90bd f0e1 ccbd f954 723d
000001e0: 3351 96bc 850a e0bd e507 2abd 297b e33d
000001f0: 32b7 a03d 3866 7ebd 01d2 cdbd a6e7 d8bc
00000200: 54be 103e bd54 2d3d d264 0dbe 798a a1bd
00000210: b8cb ebbc b625 1d3e 675c 3a3c 8e44 cbbd
00000220: e22f bdbd 9fee 18bc c752 cd3b 1f4f f9bd
00000230: a85f 3f3d e828 da3d 6336 8c3d a674 e1bd
00000240: 87c9 9cbd d60c 28bd 8d04 54bd a166 abbc
00000250: b44d e4bc 31bb 733c a21a 9ebd 8e60 023c
00000260: 5bc5 12bd 9e6f 2fbd 94eb 6a3d 4777 5c3d
00000270: 56d2 06bd daf3 c2bd db11 f0bc ab01 a83d
00000280: de7c 233c 7059 b0bc 48f7 ca3a e461 a23d
00000290: ee00 f43d 12cb 8cbc 231b 26bd aa6d 22bd
000002a0: 56d1 963c b404 023d d6c4 f7bc 468f 733d
000002b0: 3d9f b23b 22ba 0f3e db7e 043e 3288 00bc
000002c0: c834 f0bd 0bee fd3c 3a53 09be 58c9 c2bd
000002d0: f3b2 27ba 90c9 cabd e0c5 42bc 8e2c 4bbe
000002e0: 098e 443d be3f 6d3d 7fe2 af3d 1e08 a83b
000002f0: 9630 98bd 15f7 e23d 6a34 95bd 7632 c33d
00000300: cc24 113e 0e7a a2bd d459 89bd 8cac c53d
00000310: 1d3d bcbd f669 3d3d 717b 9f3d 65e2 363d
00000320: 4686 333d 7617 77bd 7a74 8d3d a591 04bd
00000330: bc7e b03d 561b cbbc ad36 923d 19cb bbbd
00000340: b69f 78bb 9931 713d 5ec5 cebc 6336 993d
00000350: 149b 113b 416f d0bd 4b15 76bc 0da3 35bd
00000360: a1a7 6abd 0197 db3d 1126 d83d 6b3e 053e
00000370: 8cac d13d 5ae8 aa3b 9ac7 203e b803 f4bd
00000380: 88ec 743d 2132 753c 24c3 c2bd af39 913c
00000390: c55f 76bd 200c c43d 28bd c6bc 0b6a 913c
000003a0: 4826 873d fb38 a73c a021 97bd e11c 023c
000003b0: dddc 1bbd 7a24 babd 49b2 c9bc 11b3 bbbc
000003c0: 3c58 c1bd e64b 61bd 86fc 67bb d7fc 023e
000003d0: 50e6 943d 8d6e 84bc 1cb2 a93d 03ea e93c
000003e0: 4160 84bd 22b1 d63d 68ed eabd 836b 833c
000003f0: be98 bcbd d5ed 4c3b c3b1 eb3d fb97 593d
0.06345225 -0.068557665 0.05977737 0.15001085 -0.014837463 -0.03108919 0.0048702615 -0.03426436
-0.08243597 0.035053708 -0.079537585 -0.12729947 -0.017118016 0.1171304 0.10532297 -0.085348845
-0.085792586 0.120767035 0.012580524 -0.09066208 -0.08357678 0.022529658 0.04064388 -0.019564526
0.045975268 -0.0841143 0.0946315 -0.06344439 -0.12936206 0.01584324 0.11439161 0.0057354025
-0.11158366 -0.11250859 -0.032573003 -0.032855466 0.04142731 0.03419837 0.02968702 0.009325446
-0.03433333 -0.081858665 -0.08451302 0.12305376 -0.09508189 -0.02810608 -0.059857775 0.061787914
0.062384382 -0.07135192 0.13273051 -0.07555009 -0.07594631 -0.039424352 0.090046175 0.13312472
-0.046002507 -0.10249685 -0.09979589 0.037129037 -0.022582226 0.12191384 0.14763805 -0.01839376
-0.054452978 -0.14079733 0.114410974 0.08697086 -0.04185758 0.0069010328 -0.009223352 -0.0442206
0.040845513 -0.07023884 0.16168739 0.106339395 0.02470462 0.121636406 0.014488265 0.16139123
0.09865886 0.13127057 -0.09883574 -0.007972178 0.0011860098 0.008476566 0.025572293 0.124175906
-0.0811673 0.08398965 -0.055094305 0.052602474 0.1209074 0.05286571 -0.034315433 0.06318738
-0.110091135 -0.120474346 0.08334138 0.14859772 -0.035420682 0.109232426 -0.098404124 -0.068605624
-0.050447058 0.13788547 -0.018545346 0.00805905 0.13885929 -0.102346785 -0.054488465 -0.015082139
-0.0059546046 0.032948997 0.077707 0.124559544 0.09782383 -0.070422284 -0.10004032 0.059163067
-0.018349266 -0.109395064 -0.041511435 0.11107475 0.07847442 -0.062109202 -0.10049821 -0.026477646
0.14135104 0.04231714 -0.13807991 -0.0788774 -0.028783664 0.15346417 0.0113745695 -0.09925185
-0.092376485 -0.009334235 0.0062659713 -0.12173294 0.046722084 0.106523335 0.06846311 -0.11008577
-0.07655626 -0.041027866 -0.051762152 -0.02092296 -0.027869083 0.014876173 -0.077199236 0.007957591
-0.035832744 -0.042831056 0.05735357 0.05382469 -0.032915436 -0.09519167 -0.02930539 0.08203443
0.009978501 -0.021527022 0.0015485073 0.079288274 0.1191424 -0.017186675 -0.040553223 -0.039655365
0.018410366 0.031742766 -0.030245226 0.059462808 0.0054511116 0.14035848 0.12939017 -0.0078449715
-0.11728817 0.030997297 -0.13410655 -0.095110595 -0.000639721 -0.09901726 -0.011887997 -0.19841215
0.047987018 0.057922117 0.085881226 0.005127921 -0.07431142 0.110822834 -0.07285388 0.09531109
0.14174193 -0.07933436 -0.067065865 0.09652051 -0.09191344 0.04624363 0.077872165 0.0446495
0.043829225 -0.06032511 0.06906982 -0.03236546 0.08617923 -0.024793308 0.07139335 -0.09169597
-0.0037936992 0.05888519 -0.025240596 0.074810766 0.0022217678 -0.1017747 -0.015019725 -0.04434495
-0.05728877 0.10722161 0.105541356 0.13012092 0.10237989 0.0052156867 0.15701142 -0.11914772
0.059795886 0.014965565 -0.09509876 0.017727701 -0.060149927 0.09572625 -0.024260119 0.01775076
0.065990984 0.020412913 -0.0737946 0.007941456 -0.03805243 -0.090889886 -0.024621146 -0.022912534
-0.094406575 -0.055004023 -0.0035398318 0.12791763 0.07270491 -0.016165996 0.08285925 0.028553968
-0.064636715 0.10483004 -0.11471063 0.016042477 -0.09208821 0.0031269689 0.11508515 0.053123455

lstm.bias_hh_l0 f4 [256]
00000000: 5b99 023e e73e 00be f227 e43c 90b2 143e
00000010: 3dd0 eabd f73e 5cbd 0106 a63d c400 353d
00000020: 6983 5b3d 4f8e c43d 7091 1f3c dac7 b7bd
00000030: 1991 dcbd 6c5a d13c 55b1 413d c6b4 a53d
00000040: 69de 923c 04cd e73d 0585 383d 35bf e73d
00000050: 0c31 e0bd 0deb 5f3d e231 1dbd dd31 663d
00000060: eda3 1a3c d54c 44bd bdd3 253c 8a03 923b
00000070: f456 753d 0207 2b3c b5b4 8bbd b55c 1abe
00000080: 1d26 df3c 8d8e 9a3d f9b7 c53d fe6d ab3d
00000090: 0c67 dcbd cbad b7bd 3fb2 33bd 6251 04bd
000000a0: 5b5b b6bc 7df1 84bd 2e6a c2bd d44a d63d
000000b0: ef57 68bd f490 bbbc ab78 3b3d 5d43 d03d
000000c0: 244d bdbc ecfb 793c 81c9 53bd 4e02 f4bc
000000d0: 7541 003c aa5c b93c 6518 0d3e cd54 21bd
000000e0: 663d 9b3a 4466 ce3d 5be8 853d 8193 113e
000000f0: a7e0 d23d a14c 40bd fe5a e23d 14d3 433c
00000100: 2f4c 33bd ad56 efbc fb79 10bc 5567 1f3e
00000110: 8e37 2bbc 459d 18bd dd10 9c3d 2cb8 e73d
00000120: ddc4 29bd 70a5 d9bd fcb5 f33d bac1 c83d
00000130: 00d4 ff3c 310a 8b3d 6336 363b ab28 7abd
00000140: ec95 3c3d 4593 a3bd 8bde 14be dd03 e1bc
00000150: 3751 01be d786 01be d307 23be 4269 6cbd
00000160: 7efc d3bc 2512 cb3d d48f ff3d 50f0 cd3b
00000170: 32ae b3bd 71f8 b03d 5491 a3bd 1aa2 76bb
00000180: 7cbb 973c 1349 efbd 55bf bd3c d13e 7d3c
00000190: b331 7d3d b8d9 44bc 9df7 16bd 4b37 1fbd
000001a0: 033e 9dbc 529d 753d f6b9 433c d050 a63d
000001b0: d6a0 443d 9250 d43d 1370 7bbd 320d abba
000001c0: eece 133e 110d d9b9 35fc d83d f33c 3dbd
000001d0: f0f4 afbd 585a a63c c253 d03d 585e 083e
000001e0: 9c9c b73c 9113 c13d 0a04 c9bd f969 e73d
000001f0: 770d 14bb e33b 333d ec2b 283d f937 f73d
00000200: 6f5f 173c 1b80 f53d 7d37 12be b57e 01be
00000210: b65a 323d 76e4 5b3c f28b d43d 26ee 933d
00000220: d368 98bc f826 02be e4c1 c3bc 46e9 663c
00000230: d9cc 603d 82b9 f73d bd32 c03d 389c cabd
00000240: f9b6 bd3d 24d1 023d 509a 48bd ec57 393d
00000250: 79f8 a83d 0f25 88bd 3c96 bfba 3813 bcbd
00000260: 664d a43d adb2 a33b c726 4b3d 1f28 233e
00000270: fa9b 2ebc 2e3b 773d 02da be3d 79f6 1f3d
00000280: 1be3 e53d 8d12 aa3d 97a6 8bbd 9067 b03d
00000290: 7245 e83d d4aa 2dbd 23dd bc3d 0acb ad3d
000002a0: a1cc 85bc 384c 04be 24aa 5a3d a18c aa3d
000002b0: 260a d13d 496b fe3d f04a d03b 073e 29be
000002c0: 7481 28be 886e d0bd 99cc ce3c 6e26 dabd
000002d0: dc66 b2bd cefd ec3d 91e3 c2bd c6a2 c5bd
000002e0: 96b8 b83d c05c afbd 85ad b73c 6291 26bd
000002f0: 34b8 a1bd 2cd9 ea3c a1bb 6aba 5ed1 97bd
00000300: 056e 92bd b8b9 17bd 8894 8ebd bc42 8b3d
00000310: c963 9abd 5172 2bbd 5dcb ad3d add9 f9bd
00000320: c831 023e 9e4b 9e3d a110 6fbd 39ac e3bb
00000330: 9e53 043d da98 9cbd 9f35 3ebc a870 a83c
00000340: 71a5 d9bc 0f89 22bd c59d 913d b163 1abd
00000350: 497e 6cbd 5841 a6bc f112 05be 80f7 1d3c
00000360: 3f5a c8bd 50f5 103c 3925 693d 567f be3d
00000370: b723 763d 0d23 1ebd 0e5a ec3d e754 5b3d
00000380: 04f7 5f3b 01f4 e33c d05b d93d 8645 8fb9
00000390: 7cd9 5fbb bf59 6dbd 019e 6dbd f058 373e
000003a0: 6b77 553e ad2a f0bc bc4f aebd ef40 043e
000003b0: 3278 b4bd cfda 87bd de51 5ebc 045f e4bc
000003c0: be78 de3c 5d7e 1dbe aea7 17bc b3c4 dcbc
000003d0: 441a ed3d a07f 213d e5e3 f3bc 6d3e 103e
000003e0: 0a35 c43d 0dba e13d 5820 033d 87ff 81bd
000003f0: 470e 8e3d ac89 943d f350 3dbd 60fe d4bc
0.12753813 -0.12523995 0.027851079 0.14521241 -0.114654996 -0.053770985 0.08106614 0.044190183
0.05359212 0.09597456 0.009739265 -0.089736655 -0.10769863 0.025555812 0.047288258 0.080911204
0.017928319 0.113184005 0.045048732 0.11315767 -0.10946855 0.05466752 -0.03837765 0.056199897
0.009438497 -0.047924835 0.010121283 0.0044559883 0.059897378 0.0104386825 -0.068215765 -0.15074427
0.027239854 0.07546721 0.096542306 0.08370589 -0.10761842 -0.08968695 -0.04387116 -0.032304175
-0.022260359 -0.06491373 -0.094929084 0.10463491 -0.056724485 -0.022896267 0.045769375 0.101690985
-0.023108073 0.015257817 -0.05170584 -0.029786255 0.007828106 0.022627193 0.13778837 -0.039387513
0.001184386 0.10078099 0.06538459 0.14216425 0.10296755 -0.04694808 0.11052512 0.01195218
-0.043773826 -0.029216135 -0.008818145 0.15566762 -0.010450257 -0.03725936 0.07620404 0.11314425
-0.04144751 -0.10627258 0.11899945 0.098025754 0.03122902 0.06789053 0.0027803413 -0.06107394
0.046041414 -0.07987074 -0.14538018 -0.027467662 -0.12628637 -0.12649094 -0.15920953 -0.05771757
-0.025877234 0.0991557 0.12478605 0.006284751 -0.087734595 0.086411364 -0.079867035 -0.003763324
0.018522017 -0.1168386 0.023162523 0.015456871 0.061814975 -0.012014799 -0.036857236 -0.03887109
-0.019194609 0.059964485 0.011946192 0.081208825 0.048004948 0.1036693 -0.06138618 -0.0013050197
0.14434406 -0.000413992 0.1059498 -0.046200704 -0.0859164 0.020306751 0.101722255 0.1331724
0.022413544 0.0942756 -0.098152235 0.112995096 -0.0022591033 0.043758284 0.041057512 0.12071223
0.009239062 0.11987325 -0.1427898 -0.12645991 0.04354354 0.013421169 0.10378255 0.072231576
-0.018604672 -0.12710178 -0.023896165 0.014093703 0.054882858 0.1209593 0.093846776 -0.098930776
0.09263415 0.031937733 -0.04897529 0.045249864 0.082505174 -0.06647693 -0.0014616917 -0.09183353
0.08022575 0.004995665 0.049597528 0.15933274 -0.010657305 0.060359173 0.093189254 0.039053414
0.112249576 0.083043195 -0.06818884 0.08613503 0.11341371 -0.042399243 0.09221866 0.08485992
-0.016332926 -0.129197 0.053384915 0.08327604 0.10207014 0.12422807 0.0063565895 -0.16527568
-0.16455632 -0.10177332 0.025244044 -0.10651861 -0.08711025 0.11571847 -0.09516061 -0.09650187
0.09019582 -0.085626125 0.022421608 -0.04066599 -0.07896462 0.028668009 -0.00089543505 -0.074129805
-0.07149891 -0.03704235 -0.06961924 0.06799838 -0.07538564 -0.041857067 0.08486054 -0.121997215
0.12714303 0.077292666 -0.058365468 -0.006948021 0.032306306 -0.076463416 -0.011609464 0.020561531
-0.026568146 -0.03968149 0.0711017 -0.03769273 -0.057737622 -0.02029483 -0.12995507 0.009641528
-0.09782838 0.00884755 0.056920264 0.09301631 0.060092654 -0.038607646 0.11540614 0.053547766
0.0034174332 0.027826311 0.10613215 -0.00027326884 -0.003415673 -0.057946917 -0.058012012 0.1790502
0.20846336 -0.029317224 -0.08511302 0.12915395 -0.08811988 -0.06633531 -0.013569323 -0.027877338
0.027157184 -0.15380235 -0.009256287 -0.026949262 0.115772754 0.039428353 -0.029771755 0.14086314
0.09580429 0.110218145 0.032013267 -0.06347566 0.06936317 0.07252821 -0.046219777 -0.026000202

lstm.weight_ih_l1 f4 [256, 64]
00000000: ed62 793d 511d 1f3e f1a7 9f3a ad56 78bc
00000010: 9df8 11bd 70ca 9f3d 9f68 f73d 7292 dcbc
00000020: 1e8e 0bbe ea73 babd 021b f13d 2465 6dbd
00000030: 8a84 143e 55a2 513e 01da 463d b294 b63c
00000040: a5c9 533d ac06 f8bc 6174 acbd b9bb 19bd
00000050: f671 9fbc f626 8cbc c450 0a3d 282c 2fbe
00000060: 3bee d33d 40a6 993d c32d 57bd 0758 163e
00000070: 00ad 51bc 3e0c 0bbd 3b49 103e 8e98 fd3c
00000080: cee6 773d 6e5e 99bd aeaf ed3d 2fcb 27bd
00000090: e7df 0cbe 399e 0cbe 1214 ee3c 2d63 643d
000000a0: 645a 43bd 1f59 d43d fba4 e8bd f89e a73d
000000b0: 2aec 0f3c bb93 23bd a379 f6bb 224d c6bd
000000c0: 00ca 183c b941 71bc 995f 533d bc98 eebc
000000d0: 4b07 0cbe 2135 02be 8a0c 4a3c 4e0e 183c
000000e0: 8037 413d bade edbd f8d2 ea3d f9cd 6fbd
000000f0: 4696 22bd e13f 20bd 774e d2bd 2c00 0b3d
00000100: 736f d5bd af7c 8a3c 3556 9d3c 8acb 9cb9
00000110: 4510 6e3d c33c 4bbd a31b 3e3b 2816 883c
00000120: e40a edbd 742f 96bd 6a9d 99bd 36ab 36be
00000130: 51df c5ba 11f3 0fbe ed5b 6bbc 435b f13c
00000140: ea1f 70bd f520 a3bd 8b3c 39bc f724 1bbd
00000150: 30c6 033e ef56 66bd 0466 13be 13c8 ffbc
00000160: 4a97 39bc f9a0 033d 32ef 08be 395e 363e
00000170: dffe 3f3d 667b ffbd 3ded 30be 5a5d a6bd
00000180: daac c5bd c91c 9a3c c428 c23c c4f0 ecbd
00000190: eb16 94bd 10f1 bdbc cc4f bbbd 6dee 8c3d
000001a0: 16ed 8bbd 46e5 d33d c962 ccbd 92f5 b13d
000001b0: 05e3 dabb 27dd e03d 2892 503c 7ef1 2bbe
000001c0: fc22 093c 362f 90bd 540b c0bd bac6 7c3b
000001d0: 45b9 19bd 3f6f 4dbb f6ea fe3d 0323 a0bc
000001e0: 3725 81bd 9538 9e3d 3f8c d33d ae19 8abd
000001f0: be43 adbc bd70 3bbd 8a22 53bd b030 803a
00000200: a0e5 5bbd 6571 a83c 95a8 3fbe aca8 c73b
00000210: 680d 20be b6d8 663e c918 1c3e 68c0 39be
00000220: 7a56 40be 4197 8b3c 27f3 713d f7d3 17be
00000230: 8fc8 2d3e a76d be3c 96e6 243e fc4a babd
00000240: 4ecf 143d 8a5f 2f3d 93dd 61bd efc8 0abd
00000250: b948 6f3d 32b9 083e 73fc 9b3c 922b 97bd
00000260: 1faf 06bb b026 41ba 7fc9 07bd bd95 433c
00000270: be63 34be 3e99 d03c bd66 933d b2cf 0fbc
00000280: 44c1 d4bd 8f5d aebd bc3b 57bd e4b5 0c3e
00000290: 4888 953d 5542 b7bd 4352 15be d4f5 bf3c
000002a0: ad13 ffbd 8710 22bd 67f2 2dbe 86b6 32bc
000002b0: e6fc c43d e772 f3bc a3d0 f9bd 5f1c f43c
000002c0: 1f42 d4bc d7e4 12bc 81d1 453d f06e 883c
000002d0: 4380 b43d d580 53bc 989b 113d 2606 48be
000002e0: 0e16 8abd 821b 17be a013 603e 4aeb 00bd
000002f0: 07a0 64bd ab0e 13bd 94ba 3ebe 437f e33d
00000300: 17e8 19bd 3b94 ebbd d8fc ddbd 32f6 083e
00000310: ad35 bcbd 7640 c63c f9d4 073c 5391 6dbd
00000320: da3e bdbd fb4a 33bc 5b14 6ebd 2684 18be
00000330: 78c2 bfbd 9f51 a5bc 61ab 213d 4b6a babd
00000340: 9947 033d 1069 393d 350a bbbc 6b5f e7bd
00000350: f967 63bd 3605 183e 886e 173d ec07 48bd
00000360: 80bd 8dbd 58b1 e63d 23e1 0cbc 6882 833b
00000370: 4587 6ebd 856b 17be 52a0 743c 6c90 273b
00000380: 1b83 5d3d e7d7 e3bd 7ae6 0a3e 063d 44bd
00000390: ee8c 15be 7a2a 1bbd eed4 17be 7434 263e
000003a0: 90de 19be 1706 30bd 08b5 f6bd 0b9d d23d
000003b0: dbf5 0f3e 0eaa a2bd 3b5e 2fbe b106 edbc
000003c0: d2a9 09bd ac98 dabc 2b2e 3b3c d46f 833c
000003d0: ce88 b23d bc91 1bbe 1c87 3a3e 470b ef3a
000003e0: 8934 8d3c 037f 3c3d 8d3a 983d 95c5 f3bd
000003f0: 38f1 513d 7c38 0abe c7f1 b53d 32ed 273e
0.06088536 0.15538527 0.0012180788 -0.015157384 -0.035637487 0.07802284 0.12080502 -0.0269253
-0.13628432 -0.0910414 0.117727295 -0.057957783 0.14503685 0.20472081 0.04854775 0.0222877
0.051705975 -0.030276619 -0.08420635 -0.037532542 -0.01946352 -0.017108422 0.03376843 -0.17106688
0.10348173 0.07502413 -0.052533876 0.14682017 -0.012797594 -0.033947222 0.14090435 0.030956533
0.060522847 -0.07488714 0.11605774 -0.040965255 -0.13757287 -0.13732232 0.029062305 0.055758644
-0.047693625 0.10368561 -0.113595925 0.08184618 0.008784333 -0.03993581 -0.0075218244 -0.09682681
0.009325504 -0.014725142 0.05160484 -0.029125564 -0.13674657 -0.1271558 0.012332091 0.009280754
0.04717207 -0.11614747 0.1146602 -0.05854604 -0.039694093 -0.03912342 -0.10268872 0.03393571
-0.10421648 0.016905157 0.019206146 -0.00029906287 0.058120985 -0.049618494 0.0029008172 0.016612127
-0.11574343 -0.0733327 -0.075007275 -0.1783875 -0.0015096461 -0.14057566 -0.0143651785 0.029462462
-0.058624186 -0.079652704 -0.0113059385 -0.03787705 0.12868571 -0.05623525 -0.14394385 -0.031223333
-0.011327574 0.032135937 -0.13372496 0.1780938 0.046873923 -0.12474708 -0.17277999 -0.08123274
-0.096521094 0.018812554 0.02370108 -0.1156936 -0.07230934 -0.023186237 -0.091460794 0.068814136
-0.0683233 0.10346465 -0.09979779 0.08689417 -0.006679895 0.109796815 0.012730159 -0.1679134
0.008370157 -0.07040255 -0.09377161 0.0038570599 -0.037530202 -0.0031346825 0.12447159 -0.019547945
-0.06305926 0.07725636 0.10329484 -0.06743179 -0.021150466 -0.045761812 -0.05154661 0.0009780135
-0.053685784 0.020561883 -0.18716653 0.0060931053 -0.15630114 0.22543606 0.1524383 -0.18139803
-0.18782988 0.017039897 0.05906978 -0.14826952 0.16971038 0.023245646 0.16103587 -0.090963334
0.036330514 0.042815723 -0.05514295 -0.03388303 0.058418963 0.13351896 0.019041276 -0.07381357
-0.0020551158 -0.00073681306 -0.033151146 0.011937556 -0.17616174 0.025463697 0.0719733 -0.008777546
-0.10388425 -0.08513939 -0.0525472 0.13741261 0.07301384 -0.08948199 -0.14582162 0.02343265
-0.12454925 -0.039566543 -0.16987 -0.010907775 0.09618549 -0.029717876 -0.121979974 0.029798685
-0.025910435 -0.0089656925 0.0482955 0.016654462 0.088135265 -0.012909134 0.035548776 -0.19533595
-0.06742488 -0.14756587 0.21882486 -0.03147439 -0.055816676 -0.03590266 -0.18625861 0.111082576
-0.037574854 -0.11502882 -0.10839242 0.13375166 -0.09189925 0.02420066 0.008290523 -0.05799992
-0.092405036 -0.01094317 -0.05812488 -0.1489416 -0.09363264 -0.020180522 0.03947008 -0.09102305
0.032050703 0.04526621 -0.022832016 -0.112974964 -0.055519078 0.14845738 0.036970645 -0.04883568
-0.0692091 0.112642944 -0.008598599 0.0040133484 -0.05823447 -0.14787109 0.0149308015 0.002556826
0.05408011 -0.111251645 0.13564482 -0.04790976 -0.14604542 -0.037882306 -0.1482732 0.16230947
-0.15026307 -0.042974558 -0.12046248 0.1028386 0.1405863 -0.079425916 -0.1712579 -0.028933855
-0.03360922 -0.026684128 0.0114245815 0.016044535 0.087175 -0.15192312 0.18215603 0.0018237614
0.017236965 0.046019565 0.07433043 -0.1190292 0.051255435 -0.1349811 0.08884006 0.16399077

lstm.weight_hh_l1 f4 [256, 64]
00000000: 7b00 e9bd dbb4 ea3c 1899 cf3d 1c41 e3bb
00000010: 3f07 dcbd 92ee f8bd d494 303d bbc5 9b3d
00000020: 357c e7bd 81f3 53bc f1e1 e83d 479f 003c
00000030: ae54 cd3d 053f ffbc eb7f 96bd a2bf 383e
00000040: eb5e 9f3d 1f71 0f3d 19b6 1c3e 7141 99bd
00000050: dc4f fdbd 964d debd fc26 953d 9918 c83d
00000060: 9097 04bd e222 833c 6b2e 4fbd 6b81 29be
00000070: 7f4d 8f3d 6c9f 253c 356d 573d f948 3e3d
00000080: 33a7 d7bd f098 963d b191 7dbd bfb7 923d
00000090: b0bf 0e3d 5244 29bd a045 0fbc d60e 963d
000000a0: ae2d ffbc d358 6abd 0828 8b3c 4dcc e53d
000000b0: c760 da3d 98c2 1bbe 5acd 92bd 1fe2 6dbd
000000c0: 1325 713d 8cd4 79bc daf2 2b3d b481 723d
000000d0: 519f 5c3d 6de5 72bd dedb 9abd 6813 0c3e
000000e0: 91ff 8fbd 3e6e 2fbc 40cc eabd ad6c 143e
000000f0: 689a 22be 4802 3dbd 97e4 9e3c 798f a6bd
00000100: dcf9 13bd 3c8d 09be 038f 453d f165 c53d
00000110: 408e 11bd 25e9 99bd 472b b03c 391e d33d
00000120: 894d c8bd 3545 95bb e5e3 da39 afa7 d0bd
00000130: 8290 22bd dd29 12bd acc7 cdbd c9f7 303e
00000140: 1bca 0cbe 1c7d 72bd 7b4c c7bc 6bf6 8fbd
00000150: 564e fcbc 50f2 14be 049c 263d 6df2 933d
00000160: 5821 ac3d 6584 193d a091 db3d 09f3 9f3d
00000170: 016a f1bc d1cb 733d c992 18bd f5ee 84bd
00000180: af79 18bd b4e2 bdbd 3c3d 153d 6d06 9abc
00000190: 0bb5 bd3c 19ea a1bd 81c6 273e 1e53 bd3c
000001a0: 80b9 f43d e915 00bd 3f3c 663d 2d2f a2bd
000001b0: 82bc 973d e8f0 a8bd 2a2a 4b3d a185 3dbd
000001c0: 603c ffbd 1b6a 3c3d 6350 2b3d f9e5 dd3d
000001d0: 2032 e1bd a909 8e3d 741d 613d 0498 89bd
000001e0: cb24 813d 8f77 8a3d 4994 9dbd 36c5 ad3d
000001f0: 4494 cd3d b734 40bc 6ce3 0e3d 5098 0ebe
00000200: eb2f 6b3d d380 a73d 99bb a33b 3c51 bdbd
00000210: e9d8 a2bd 3c57 4dbe 4111 023e e3d2 65bd
00000220: 91f0 01be e5b2 efbd 59f6 b5bd 76c8 0ebd
00000230: 00bc d7ba 0cdc 2bbd 804e 863d b524 0b3e
00000240: 0a00 43bd 30a9 48be 1db1 0ebd cdfc 3bbe
00000250: 7c03 86bc 8d07 22be 6987 993d b86b e13d
00000260: d9de d43d 70ee bf3c 5649 5a3d 1f5a 6bbc
00000270: cb04 19bd 99d2 7bbc ca91 893b 9f47 5f3d
00000280: a3de ba3d d292 75bc 7e77 a63d 059c f93c
00000290: 144e 04be 09b9 35bd 724e 2a3d dabd 0abe
000002a0: d75f aebc eeb6 8f3c 7412 a93b 90e9 41bd
000002b0: 6665 f8bd dea5 11be df79 19be 3c58 2a3e
000002c0: 82d7 6a3d 3a75 5d3d 01e6 883d fe1b db3a
000002d0: 46cc 533d 8a88 1d3e 7027 bfbd c243 b0bd
000002e0: ca44 373d 54e5 a4bd 498c 16be 738b 933d
000002f0: 109e a6bd 1cf7 07be 22ea 213b 1a43 d1bd
00000300: cf1c cd3c c64d e73b a4a8 35bd 03c1 3a3d
00000310: b407 02be d486 56bd cb33 b6bd 5308 e73c
00000320: a771 ca3c 6c70 8a39 b10f 143e e76f f6bb
00000330: 98d2 46bd 3177 3a3b fd8a f6bb 3b5a 2f3e
00000340: 9e93 9cbd f2cb 9e3c 2d58 dabd 62c4 513d
00000350: 7b5c 5dbd c3fe 1dbd d514 f93d f2a5 ef3d
00000360: 883a c1bc 470b 9a3d 9846 9bbb 596b 94bd
00000370: a4f7 fa3d 3d10 3c3e 3a97 533d 4fb3 ab3c
00000380: 4e56 f63d b396 a83d ce35 803d f7ed 9ebb
00000390: ed7d e93d 7832 653d 3b6d 023e 875d 1f3e
000003a0: e1fb 17be e6db 34bd 7c54 d7bd b699 f5bd
000003b0: ab4d e03d 1e37 253c 4e44 8dbd e0d2 053d
000003c0: b3a1 8fbd 41ce b83d 3436 013e f55e 08bd
000003d0: 158e f7bc 1137 413b e6ad 29bc 842a de3c
000003e0: cc38 2a3d 462f 5fbc f26f 023e 6724 61bb
000003f0: 92ed 8ebb 75ae af3d 44df 0fbe f998 27be
-0.11377045 0.028650692 0.10136622 -0.006935252 -0.107435696 -0.12154879 0.043110684 0.076060735
-0.113029875 -0.012936474 0.1137122 0.007850475 0.10025917 -0.03115798 -0.07348617 0.18041852
0.07781776 0.03501999 0.1530384 -0.07483185 -0.123687476 -0.10854642 0.07282826 0.09770317
-0.032371104 0.016007844 -0.050581377 -0.16553275 0.06997203 0.01010881 0.052594382 0.04645631
-0.105299376 0.07353389 -0.06190652 0.07163953 0.034850776 -0.04132492 -0.008744627 0.073270485
-0.031149711 -0.057213616 0.016986862 0.11220608 0.1066299 -0.1521095 -0.07168074 -0.058076974
0.058873247 -0.015248429 0.04197965 0.059205726 0.053862873 -0.05930083 -0.075614676 0.13679278
-0.07031167 -0.010707436 -0.11464739 0.14494582 -0.15879214 -0.046144754 0.01939611 -0.08132834
-0.036126956 -0.13432783 0.04823209 0.096385844 -0.03553605 -0.07515172 0.021505011 0.10308499
-0.09780414 -0.0045553693 0.00041749995 -0.10188233 -0.039688595 -0.035684455 -0.1004785 0.17282023
-0.13748972 -0.059201345 -0.02432846 -0.070294224 -0.030799072 -0.1454556 0.04067613 0.072239734
0.08404797 0.037479777 0.10721135 0.07810027 -0.029469492 0.059520546 -0.03724936 -0.0649089
-0.03722542 -0.09271756 0.03643535 -0.018801892 0.023157617 -0.07905979 0.16384317 0.023110922
0.11949444 -0.031270895 0.0562098 -0.07919154 0.07409002 -0.08249074 0.049600758 -0.046270017
-0.124626875 0.045999628 0.04182471 0.108348794 -0.10995889 0.06935436 0.05495973 -0.06718448
0.06305846 0.06761085 -0.07694299 0.084848806 0.10038045 -0.011731318 0.034884855 -0.1392529
0.057418745 0.08178868 0.0049967286 -0.0924401 -0.079515286 -0.20052809 0.12701894 -0.05610932
-0.12689425 -0.11704043 -0.08884878 -0.034859143 -0.0016459227 -0.0419579 0.065579414 0.13588221
-0.04760746 -0.1959579 -0.034836877 -0.18358155 -0.016359083 -0.15823193 0.074965306 0.11006874
0.10394067 0.023429126 0.053292595 -0.014364748 -0.037358087 -0.015370035 0.0041982876 0.054511663
0.09124496 -0.014988618 0.0812826 0.030469904 -0.1292041 -0.044365916 0.041578718 -0.13548985
-0.021285934 0.017543282 0.0051596705 -0.047341883 -0.12128715 -0.1422343 -0.14987896 0.16635221
0.05733443 0.054066874 0.06684495 0.0016716716 0.051708482 0.15384117 -0.09333694 -0.08606674
0.044743337 -0.08051553 -0.14701952 0.07204332 -0.08135617 -0.13277858 0.0024706204 -0.10217877
0.025038151 0.007058832 -0.04435028 0.045594227 -0.12698251 -0.052374676 -0.088965975 0.028202211
0.024712397 0.00026405172 0.14459111 -0.007520664 -0.04854068 0.0028452391 -0.007523893 0.17124264
-0.07645343 0.019384358 -0.106613494 0.051212676 -0.054043274 -0.038573038 0.121621765 0.117015734
-0.02358748 0.07521682 -0.00473864 -0.072470374 0.12254265 0.1836557 0.051657893 0.020959524
0.1202818 0.082318686 0.062602624 -0.004850145 0.114009716 0.055956334 0.1273698 0.15563022
-0.14842178 -0.044155024 -0.10514161 -0.11992209 0.10952314 0.010083942 -0.06897794 0.03267181
-0.070132636 0.09023715 0.12618333 -0.033293683 -0.030219117 0.0029482285 -0.010356402 0.027119882
0.041558072 -0.013622111 0.12738016 -0.0034353973 -0.0043618167 0.08578197 -0.14050013 -0.16366948

lstm.bias_ih_l1 f4 [256]
00000000: e3cc b43d 968a 4a3d 4f36 8c3c 7c0c 71bd
00000010: 82a3 fc3d 942d f43c cf65 023e fff0 5ebd
00000020: 6eb8 ac3d 36e8 3dbd eae9 fc3d 47e8 6d3c
00000030: 07e0 893d 7d06 8e3d 7eba e23b 910b 1b3e
00000040: 00f8 223e 9e4a e13d bf3d 0f3e bb67 043d
00000050: f54f 4dbd 1377 463e dd21 39bd c51c 2f3e
00000060: 0766 47bd ac11 1d3e cd16 183e dd98 623d
00000070: 633b 123d 825d 3dbd 813b 413d 8c11 e93d
00000080: c183 1c3e 3cc3 033e 30c7 cc3d c697 28bd
00000090: d135 313e 7b9a d13d 50fa 5d3d 7d87 4cbc
000000a0: d983 d93c 4dcb 353e c143 bc3d cd53 59bc
000000b0: a12c adbd eb74 323e 4ed8 213e b576 a03d
000000c0: 8a9b 0e3e 3ad4 75bc d3fc 803c 114c c93d
000000d0: 3d33 4a3e 3c3f cc3d 73a3 cb3d f639 5abd
000000e0: 4990 febb a2cd 193e 8bc5 903d ddc2 1fbc
000000f0: 34eb 423d 63f2 723e ba48 c33c e447 cb3d
00000100: 9d54 a7bd 8d30 f13d 3e79 d73d 7b85 4a3d
00000110: 6b77 f8bb ec73 8bbd f9ef 9d3d 505d c93d
00000120: c8a7 d33d c852 093c 56f3 d3bd e697 cd3c
00000130: e037 d33c 326d ba3d 935c 08bc 84a8 353d
00000140: 8317 423b 00f2 c23d c039 493d 59e2 b13d
00000150: d9f5 123d 4eab b53d 9735 c43d e4d1 d53d
00000160: 8ea6 a63b 1b32 173e 9145 a6bc 2243 753d
00000170: 8dd3 5bbd ef5d bfbc 8bc4 10bc cfaa 253d
00000180: 5353 bbbc 174a 123e e015 8ebd d431 efbc
00000190: e1df 053e e7b2 f1bd 3ea3 2e3e c53f ecbd
000001a0: 2001 0e3d 1e55 573d a430 ba3d ee69 a43d
000001b0: ad86 cebc 87b4 193c e4c4 a13d e734 9f3d
000001c0: 08e5 223c c0c2 e4bd 5d71 6a3d 3241 b43d
000001d0: e065 b83c 4cb5 183e c5f0 753d 07ce 383e
000001e0: 88e0 64bd 3a57 ec3c 9384 08be ca6d 79bd
000001f0: a4c8 1cbc 3efd edbc 38f0 e93d f7db 143c
00000200: faef dfbd 346a 1b3e 7efd 6dbd 05d5 a5bd
00000210: cd0c 2f3d 4fc2 15be da38 5d3c 0dc9 90bd
00000220: a5f1 a0bc e42c 8e3d 2071 183d 3bbd 8e3d
00000230: c5a0 163e ae22 5b3d d757 38bd 43a8 2e3e
00000240: 73dc 1bbd cec0 08be fe1a 0f3e f6c4 4c3d
00000250: 27fa 71bd 73d9 2cbd bfee 153e 664c 633d
00000260: bab6 97bc f732 babd f1c1 8f3d 43f4 3cbd
00000270: 4dc2 fc3c 5aea f33d 8cc2 33be 4946 a93d
00000280: 3aa9 2abd aa4a 103c ef97 953d 1090 6cba
00000290: 6469 b4bd c8db c8bd 30de 023d 45cf 563d
000002a0: 34cf 853c 2007 0d3d f64c bbbc e56c 8d3d
000002b0: ced4 c23d 4eff efbd 2d1e f8bc ed9a 023c
000002c0: 0f19 02bd f436 9cbc 7652 70bd 94f1 c83d
000002d0: 7350 7ebd aa2a 033e a59e 05bb d455 d73d
000002e0: 50cf bdbc 64d4 39bd 7865 d03d 5c8d be3d
000002f0: e206 0fbe f07e 773d c5d5 3fbd 6a0e 23be
00000300: f898 fd3d e1e5 183e c676 b83b 95b4 033d
00000310: f2c3 b8bc ecd3 93bd c37b f83d 512b 71bd
00000320: 15ac 033e 4aad 7b3c c622 943d 07c4 1abc
00000330: e50a a7bc f2b1 19bd f33c 1b3e 8274 303d
00000340: 75ac cd3d 9ba6 af3b 1bcc 9f3b 54b1 1f3e
00000350: e989 1f3e 8123 103e 8d11 163d 0b02 d83d
00000360: 0cac 033e dfe4 3e3e a139 c13d e26c a23c
00000370: c609 193e 271d 903c a4dd c33d 4226 273e
00000380: 752c e43d f8b3 403e 1c9d 21bc 0405 2e3e
00000390: 40f6 25bd a680 ad3d c437 153e 0bee b8bc
000003a0: 4281 643e 646c 1c3e 0f6e 2f3e 3adc 3e3e
000003b0: 5613 cc3d fca3 003e 98b6 c13d 429a aa3c
000003c0: 10e8 1d3e 64e3 93bd 0407 b43d 18e3 edb9
000003d0: 8dc0 253e 3619 9c3d d498 773d db5e 813d
000003e0: b3fd bf3d abfe d03d bfac 7bbc 07a2 03bd
000003f0: 8dbb 34bc 1aea be3d f792 893d 2cd8 4cbd
0.088281415 0.049448572 0.01711574 -0.058849797 0.12335874 0.02980689 0.1273415 -0.05442905
0.08433615 -0.04636403 0.12349303 0.014520711 0.06732183 0.06934831 0.0069192043 0.15141131
0.15914917 0.1100056 0.13988398 0.032325488 -0.05012508 0.1938136 -0.04519831 0.17100818
-0.048681285 0.15338773 0.14852448 0.055321563 0.035701167 -0.046231754 0.047175888 0.113803
0.15284635 0.12867445 0.099989295 -0.041160367 0.17305686 0.10234543 0.054193795 -0.012483475
0.026552128 0.17753334 0.091926105 -0.013264609 -0.08455778 0.17427413 0.1580517 0.078351416
0.13926521 -0.015004212 0.015745556 0.09828962 0.19746108 0.099729985 0.09943285 -0.053277932
-0.007768665 0.15019849 0.07068928 -0.009751049 0.04758759 0.23725276 0.02383839 0.099258214
-0.081704356 0.117768385 0.10521172 0.049443703 -0.007582595 -0.0680922 0.07711787 0.09832251
0.10334736 0.008381553 -0.10349147 0.025096845 0.02578348 0.091028586 -0.008322853 0.044350162
0.0029616065 0.09518814 0.04912734 0.086857505 0.03587899 0.088705644 0.09580534 0.10440424
0.005085773 0.14765207 -0.020296844 0.059878476 -0.053668547 -0.02336022 -0.008835922 0.0404461
-0.02286688 0.14286076 -0.06937766 -0.029198565 0.13073684 -0.11801701 0.1705446 -0.115356006
0.03466904 0.05257141 0.09091309 0.08028017 -0.025210703 0.00938142 0.07898882 0.07773762
0.009942301 -0.11169958 0.057237018 0.088014975 0.022509515 0.1491291 0.06004407 0.18047343
-0.055878192 0.028850187 -0.13331823 -0.06089572 -0.009569321 -0.02905142 0.11422771 0.009085647
-0.10934444 0.15177232 -0.058103077 -0.08097271 0.042736817 -0.14624904 0.013502324 -0.070695974
-0.019646475 0.06942156 0.03721726 0.069696866 0.14709766 0.05349987 -0.045005646 0.17056374
-0.038052034 -0.13354799 0.1397514 0.049992524 -0.059076454 -0.042199563 0.14641856 0.05549278
-0.018519748 -0.09091752 0.07019413 -0.046131384 0.030854369 0.119099334 -0.17554682 0.08265359
-0.041665293 0.008806864 0.0730437 -0.00090241525 -0.08809164 -0.09807545 0.031950176 0.05244376
0.016334154 0.034430623 -0.022863846 0.069055356 0.095132455 -0.117186174 -0.030287826 0.0079715075
-0.03176218 -0.019069172 -0.05867239 0.09811702 -0.06208844 0.12809244 -0.002038875 0.10514417
-0.023170143 -0.045368567 0.10175604 0.09304306 -0.1396747 0.06042379 -0.046834726 -0.15923467
0.12382692 0.14931442 0.0056293933 0.03215464 -0.022554372 -0.07218155 0.12132981 -0.0588792
0.12858613 0.01536114 0.07233195 -0.009446151 -0.020390937 -0.037523217 0.15159969 0.04307986
0.10042659 0.005360437 0.004876626 0.15594989 0.15579952 0.14076044 0.03663783 0.10547265
0.128586 0.18641995 0.0943482 0.01982731 0.14945135 0.017592026 0.09563759 0.16323188
0.11141292 0.18818653 -0.009864118 0.16994101 -0.040518045 0.08471803 0.14572054 -0.022574445
0.22314933 0.15275723 0.17131828 0.18638697 0.099646255 0.12562555 0.09458655 0.020825509
0.15420556 -0.07221106 0.087904006 -0.0004537336 0.16186734 0.07621996 0.060448483 0.0631692
0.09374561 0.10204824 -0.01536101 -0.032136943 -0.011031044 0.09321995 0.067174844 -0.050010845
