models/gesture_model.pt (torch, 268478 bytes, 10 tensors)

lstm.weight_ih_l0 f4 [256, 63]
000000 1b ca ff bd 5b 0e ad 3c 65 08 30 be 9c b3 ac 3d
       -0.124897204 0.02112501 -0.17190702 0.08432695
000010 e6 d6 80 3c 66 87 3c 3e 2f 42 f1 bd df 56 d2 3d
       0.015727472 0.18411025 -0.11780202 0.102704756
000020 2f b4 23 3e d1 52 86 3d 40 66 cc bd 14 42 34 3e
       0.15986703 0.06558765 -0.0998044 0.17603332
000030 dd 63 41 3d 21 ea ef 3d ba cf e1 3c d5 12 e5 3d
       0.047214378 0.117145784 0.027564872 0.111852325
000040 f0 83 cd 3c 72 a1 2f be c3 21 58 3d 61 76 65 39
       0.025087327 -0.1715143 0.052766573 0.00021883241
000050 7e 15 fa bd 69 b3 09 be 2f ba 64 3d c1 90 38 bd
       -0.122111306 -0.13447346 0.05584162 -0.045059923
000060 81 e9 7c 3d 69 22 45 bd 4b 34 3a be 20 83 05 bd
       0.061746124 -0.04812852 -0.1818401 -0.032595754
000070 ed b4 40 3d 0b ed 35 be 59 11 ce bd 3c 92 b3 bd
       0.047047544 -0.17766206 -0.100619026 -0.08768126
000080 b7 80 f6 bd 99 c7 3d bd 3d 9f 5a bd fb 10 88 be
       -0.12036269 -0.04633293 -0.053374518 -0.26575455
000090 03 5c 85 bd 00 97 b5 bd 94 93 0c be 6f 44 fd bd
       -0.065116905 -0.088666916 -0.13728172 -0.12366568
0000a0 c8 9c aa bc fa ce 92 be 89 d8 4f bd b7 fb cf bc
       -0.020826712 -0.28673536 -0.050743613 -0.025388582
0000b0 fe 43 71 be d6 b5 cc 3c 2b 23 83 3d 21 64 c3 bd
       -0.23561093 0.02498905 0.06403192 -0.095405824
0000c0 d4 5a 05 be 36 54 52 bd 18 9b a1 bd 8f f3 e5 bd
       -0.1302293 -0.05134984 -0.0789091 -0.11228096
0000d0 89 6d 4d 3c 44 91 19 be 70 ac e1 bd f1 08 c2 bd
       0.012538322 -0.1499682 -0.11019218 -0.09474362
0000e0 bc 8b 70 be 46 ec b4 3d aa ca dd bb 7a d1 4e be
       -0.23490804 0.08834128 -0.006768544 -0.20197096
0000f0 bf c9 da bd 6c e8 27 bd eb 7c 7c be ec 1d 0a 3e
       -0.10683011 -0.04099314 -0.24657027 0.13487977
000100 ba e9 0c 3e a3 55 c6 3d db 42 ac 3d 54 c8 cc bd
       0.13761035 0.09684303 0.08411189 -0.09999147
000110 99 0c b2 bd 2d 06 be 3d ff eb 12 bd c4 a1 a0 3d
       -0.08693809 0.09278522 -0.035869595 0.07843354
000120 0c 38 ae bd f4 ff c8 3d f1 38 bd 3c aa 00 49 bb
       -0.08506784 0.09814444 0.02309844 -0.0030670562
000130 cc 07 0d 3d 0f 45 09 be 34 6a 6c bd 36 66 e9 3d
       0.034431264 -0.1340525 -0.05771847 0.11396448
000140 ea c8 97 be 0d a1 68 bd 42 3f 33 bd 05 93 81 be
       -0.29645473 -0.056794215 -0.0437615 -0.2530748
000150 d8 49 aa bd 2c e7 d3 bc cc f4 1a be f5 b6 08 3d
       -0.08314866 -0.025867067 -0.15132445 0.033377606
000160 21 9a 40 3d cb 22 b7 bd 45 f5 94 bd 84 f5 18 bd
       0.04702199 -0.08942183 -0.07273344 -0.037343517
000170 81 f1 59 be 4c e4 7b ba 0b 66 9c 3d ff f8 d0 bd
       -0.21283533 -0.0009608909 0.07636651 -0.10203742
000180 10 3c 5d bd 4c 80 fc bc 21 e6 82 3d 81 be cd bc
       -0.05401236 -0.030822895 0.0639155 -0.025115253
000190 2e df 83 3b c7 cf 83 bc 54 51 95 bd bb 6e b3 bc
       0.004024408 -0.016090287 -0.07290903 -0.021903386
0001a0 60 1d 8b bd 85 5f 24 3e ab 83 29 3e 65 a0 bc 3d
       -0.06792712 0.16052063 0.16554134 0.0921028
0001b0 fe 46 28 3e 51 4a 87 3d 10 20 f8 3d 65 87 de 3d
       0.16433331 0.066059716 0.121154904 0.10865668
0001c0 5d 81 12 3e 60 6d 82 bc f4 dc c0 bd d8 d4 10 3d
       0.1430716 -0.015921295 -0.094171435 0.035359234
0001d0 6a af a2 3d ee b6 aa 3d 27 90 07 3e d7 c7 5c bc
       0.07943614 0.08335672 0.13238584 -0.01347538
0001e0 35 e6 8c bd 05 62 8e bd 2e 40 1b bc 15 9b 0f 3e
       -0.06879846 -0.069522895 -0.009475751 0.14024003
0001f0 70 00 91 bc 8b af 1b 3e 37 87 15 3d 27 77 c6 3d
       -0.017700404 0.15203683 0.036505904 0.09690695
000200 dc 43 df 3d d0 9d aa bb 30 36 c3 3d 63 b5 a0 be
       0.10901615 -0.005206801 0.0953182 -0.31388387
000210 69 b8 e0 3d f2 83 08 3d 1a f9 c1 bd f3 5d 91 3d
       0.109726734 0.033328958 -0.094713405 0.070979975
000220 61 c8 95 bd a2 24 3e be 6a f2 e0 3d 62 2a 79 bd
       -0.0731361 -0.18568662 0.10983737 -0.060831435
000230 ff fd 8b be ae cc 4f bd 97 33 ba bd 53 ff f5 bc
       -0.2734222 -0.050732307 -0.09091871 -0.030028975
000240 20 83 9c 3d 47 f3 0d be 3a 7d 69 be 2b a7 ca bd
       0.076421976 -0.13862334 -0.22801676 -0.09895166
000250 7d c9 a6 bd bd 3a 09 be a9 6b 12 bd 82 04 95 3c
       -0.081438996 -0.13401313 -0.035747204 0.018190626
000260 7b 8f 70 be 7a 9a d3 bd 09 8e b5 bd 78 33 af bd
       -0.23492233 -0.103321984 -0.08864982 -0.08554739
000270 09 bb a1 bd 28 7a 2f bd f6 9a 87 3d 96 c7 93 3d
       -0.07897002 -0.042841107 0.06621353 0.07215802
000280 91 4a 1e be 1d 6a cd 3c a3 8a d8 bd 3c c4 61 bd
       -0.15458132 0.025075013 -0.10573318 -0.055118784
000290 9b 44 a7 bd 1d 55 87 bd 3c bd ae bd de a4 ed 3c
       -0.08167382 -0.06608031 -0.08532187 0.029009279
0002a0 00 5f 1d bd 72 95 ae bd 52 13 7e 3c 1a e3 fc bc
       -0.038420677 -0.08524598 0.015507536 -0.03087001
0002b0 f5 19 ca bc db 94 84 3d 35 c7 d0 bc 02 5d 4d 3d
       -0.02467058 0.064737044 -0.025485614 0.050137527
0002c0 0e e6 c8 3d 80 3b e0 bd fa d8 92 bd a7 7e 2a bc
       0.098095044 -0.10948849 -0.07170291 -0.010406173
0002d0 13 e3 8c 3d bd c8 ca 3d 69 05 dd 3c 59 18 93 3d
       0.068792485 0.09901569 0.026980119 0.07182378
0002e0 92 50 da bd ff 69 28 3e ef f9 9c 3d 50 6b 2a bd
       -0.10659899 0.16446684 0.076648585 -0.041606247
0002f0 5d 70 55 3b 34 15 3c bc d3 30 b6 3d 77 30 18 bc
       0.0032568194 -0.011479665 0.08896031 -0.009288899
000300 66 d5 c4 bd b1 ba 86 bd d6 13 21 3e 38 21 c1 3d
       -0.09611015 -0.06578577 0.15730223 0.09430164
000310 d3 34 89 bd 6b 27 7f 3e 48 81 28 3d 88 11 82 bd
       -0.066995285 0.2491738 0.041138917 -0.06351
000320 63 dc 71 3e 7e 7c 95 3d 49 fd 6d 3d 13 9c 0f 3e
       0.23619227 0.072991356 0.05810288 0.14024381
000330 f9 02 dd bc 74 91 f7 bd 3a 3a 3d bd 5b d8 1b bc
       -0.026978957 -0.1208829 -0.046198107 -0.009512032
000340 7f 1e 0d 3d 22 c8 a6 3d c0 e4 ae bd d0 63 f0 3d
       0.03445291 0.08143641 -0.08539724 0.11737788
000350 1c 87 a9 3b 65 0f 94 3c 39 05 86 3d 1b d4 e6 bc
       0.005173577 0.018073747 0.06543965 -0.028177312
000360 73 6c bf 3c 98 fd 1e 3c bc 96 44 be a6 da e2 3c
       0.023367142 0.009704016 -0.19198126 0.02769215
000370 81 38 69 3d 2f 00 3a be b1 71 86 3d 42 6d 0e 3d
       0.056938652 -0.18164133 0.06564654 0.034772165
000380 11 7f aa bd d5 f8 48 3d e5 27 e7 bc 79 89 64 3c
       -0.08325017 0.04906543 -0.028217265 0.013948792
000390 b4 35 33 3c 53 74 c9 bd 82 10 b8 bd 5a 81 a3 bd
       0.010938097 -0.0983664 -0.089875236 -0.07983656
0003a0 e3 85 0d 3d bc 46 b9 bd a1 64 e3 3b c5 27 7e 3d
       0.034551512 -0.09046695 0.006939486 0.062049646
0003b0 d8 95 15 be 9b 60 da 3d 98 a6 c1 3d 74 8f fc bd
       -0.14607942 0.10662957 0.09455603 -0.12332049
0003c0 82 8f 6d bd 80 9a b2 3d 09 0b c6 3a 4f 09 ca bd
       -0.057998188 0.08720875 0.001510949 -0.09865057
0003d0 44 6f 7b 3d c7 55 38 3c d1 e5 95 3d e5 27 8b 3d
       0.061385408 0.01125092 0.073192246 0.06794719
0003e0 49 c9 2a bd bb 18 e2 3d aa de 48 bc df 51 a1 bd
       -0.041695867 0.11039873 -0.0122601185 -0.07876944
0003f0 bc 9d 12 3e 57 f8 d4 3c 60 29 82 3d 8a b2 6e 3d
       0.14317983 0.025997324 0.06355548 0.058275737

lstm.weight_hh_l0 f4 [256, 64]
000000 11 21 b9 3d 0f 8d 9f bc d2 64 95 3d 5f 87 c6 bd
       0.0903951 -0.019476442 0.072946206 -0.09693789
000010 fc 03 cc 3d e0 a9 34 3d 12 e5 4f bc 81 0e 1d 3d
       0.099616975 0.044107318 -0.012688892 0.03834391
000020 e5 ed a0 bd b5 c7 ad bd f2 7c ec 3d 10 88 f3 bc
       -0.07857875 -0.08485357 0.11547269 -0.029727966
000030 f7 c2 cb 3c 42 18 d9 bd fb ea 0b be 7c bf 95 bd
       0.02487324 -0.1060033 -0.13663857 -0.07311913
000040 a8 05 cb 3d 45 2d d5 bd 26 ea c0 3d 6f 56 26 3d
       0.09913188 -0.10409025 0.0941966 0.040609773
000050 50 78 9a 3d 7f 90 c1 bc bd 9d 01 be 6f 3c 93 bb
       0.07542479 -0.023628471 -0.12657829 -0.004493288
000060 42 d3 ac bc b1 24 04 3e ef 3b 93 3d 48 65 9d bd
       -0.02109683 0.12904622 0.07189166 -0.076853335
000070 c8 53 a9 bd fd 53 de bd f6 c2 4e bb f3 7b 94 3d
       -0.08267933 -0.10855863 -0.0031549311 0.07250204
000080 55 64 fb 3d 40 ab cd bb ca f9 a0 3d 43 c9 d5 3d
       0.12274996 -0.006276518 0.078601435 0.10438778
000090 ec 96 09 3d 40 65 b6 3d 35 0c 43 bd c1 15 f3 bd
       0.033591196 0.08906031 -0.047619063 -0.118693836
0000a0 f4 7f 62 bd db ef df bd 7e 98 ef 3d 59 a8 dd 3d
       -0.055297807 -0.10934421 0.116990075 0.108231254
0000b0 68 8b 4c 3d 40 fc bb 3c a1 0a ca bd 5a bb 08 be
       0.049937636 0.02294743 -0.098653086 -0.13352719
0000c0 cf ac cc 3d 11 32 1f 3d 64 c8 dc 3d b5 52 2d bd
       0.09993898 0.038866106 0.10780409 -0.042315204
0000d0 13 9a 0b 3e 41 0f 7b b9 db 74 01 3e 07 3c 62 3d
       0.13632993 -0.00023942908 0.12642233 0.055233028
0000e0 5e 04 0d 3d 6d 1e bf 3d 85 5e 47 3d 97 d7 b7 3d
       0.034427993 0.09331975 0.048674125 0.089766674
0000f0 50 03 47 3c c7 3b 41 bd a8 d0 a3 3d 83 b5 00 3d
       0.012146786 -0.04717615 0.079987824 0.031423103
000100 4a f6 1a 3e cb 42 e4 3d 5a 75 01 be 1c c8 cf bd
       0.15133014 0.11145552 -0.12642422 -0.1014559
000110 f3 43 03 be 5e 2c be 3d 4b ac 1d bd ab 01 33 bd
       -0.1281889 0.09285806 -0.03849439 -0.043702763
000120 58 6c 06 3d 71 00 c8 bc 9d fb 14 bd 0e 08 6e 3c
       0.03281817 -0.024414273 -0.03637277 0.014528288
000130 ce d5 c5 3d 4d a1 74 3d a4 86 ba bc b5 88 1c 3e
       0.09659921 0.05972414 -0.02276928 0.15286525
000140 39 c4 a5 3d 6c bc b5 bd 6b 86 fa 3a a8 b2 2b 3d
       0.08094067 -0.08873829 0.0019113546 0.041918427
000150 15 17 12 3e 01 0f c8 3a 22 c9 96 bd a9 f4 d5 bd
       0.14266618 0.001526326 -0.07362582 -0.10447056
000160 69 ab cf 3c a3 5b d7 3c 3d bd bd 3d 2c 16 d4 3c
       0.02535029 0.026288813 0.0926461 0.025889479
000170 12 12 65 bb cb a2 01 be 05 97 4b bd e1 6a 22 bd
       -0.0034953398 -0.12659757 -0.04970457 -0.03965271
000180 8e cb 2d 3e fb 27 67 3d 6e 10 ad 3d ea 6f 78 bc
       0.16972181 0.056434613 0.08450399 -0.015163401
000190 9f 33 f2 bd 97 57 ea 3d 42 b5 55 ba b6 21 89 3d
       -0.11826252 0.11442488 -0.00081523147 0.06695883
0001a0 88 73 3d 3d b1 50 ad 3d a6 64 c2 3d 4d 54 9c bc
       0.046252757 0.08462656 0.094918534 -0.019083166
0001b0 ee f4 9d 3c 0e b9 f2 bc d2 79 98 3c 26 9c 4e 3d
       0.01928183 -0.029629257 0.018612776 0.050441884
0001c0 0a 27 74 3c 94 48 55 bd 68 54 04 3e f3 8e c5 3d
       0.014901886 -0.05207117 0.12922823 0.09646406
0001d0 64 d7 a8 bd 66 07 bb bd ab 27 8b 3d 13 1c 15 3e
       -0.082442075 -0.091322705 0.067946754 0.1456149
0001e0 76 09 aa bd 0d c5 87 3d 7f 97 3b bd a2 cd 0f bd
       -0.08302586 0.06629381 -0.045798775 -0.035108216
0001f0 43 39 e4 3c 02 18 8b 3d 37 6d 00 be 86 3e 13 3d
       0.027859336 0.067916885 -0.12541662 0.0359483
000200 9e 5b 04 be dd 4a 95 3c 84 04 ea bd 9e fb 02 be
       -0.12925574 0.018224174 -0.114266425 -0.12791297
000210 b3 2e c2 bc 05 69 4d 3e 9d 2c ea bd b0 28 a3 3d
       -0.023703909 0.20059593 -0.114342906 0.07966745
000220 0c 6b ff bb d2 0c 6e 3b ef 9c 8b 3d 79 fc 81 3a
       -0.0077947434 0.003632356 0.06817042 0.0009917162
000230 dd 97 09 be b0 38 38 bd 59 68 ca bd f8 b6 f0 bd
       -0.13436837 -0.044975936 -0.09883184 -0.117536485
000240 a5 19 1c 3d 84 90 9f 3d 29 f3 08 bd d5 8e 1f 3e
       0.038110394 0.07791236 -0.03343502 0.1558183
000250 f4 48 ae bd 0d a0 e7 3c 1a b9 f7 bb 69 fb 87 bc
       -0.085100085 0.02827456 -0.0075599076 -0.016599374
000260 70 69 b1 3c 14 cb f0 3d 00 46 29 bd 14 9c 11 3e
       0.021656722 0.11757484 -0.041326523 0.14219695
000270 0f 94 6f 3c f4 44 12 3d bc 8b c0 3d 55 dd c6 3c
       0.014622702 0.03571029 0.09401652 0.024275461
000280 02 ba e6 3d 8f d3 9a 3c c6 c8 ae bc 57 97 e5 bb
       0.11265947 0.018899707 -0.02133597 -0.0070065665
000290 dc f6 92 bd ae 23 b4 bd 95 2e 92 3d 02 6e ff bd
       -0.07175991 -0.08795868 0.07137791 -0.12472154
0002a0 55 e2 c5 3d 74 9c 28 bd da 3b f5 3d 43 6e 05 bd
       0.0966231 -0.04116483 0.119743064 -0.032575857
0002b0 99 5a 93 3d 86 27 83 3d 8b 06 b2 3d 42 86 e6 bd
       0.071950145 0.06404023 0.08692654 -0.112560764
0002c0 72 3f ea 3d 19 0a 90 bd f1 3b b1 3c ca 31 34 bd
       0.114378825 -0.07033176 0.021635028 -0.043992795
0002d0 58 90 37 be 21 08 c4 bb 87 af 30 3e d2 ae 92 bd
       -0.17926157 -0.0059824144 0.17254458 -0.071622506
0002e0 be 43 73 bd 4b 3b 0c bd 4a d6 d9 3d 90 55 22 be
       -0.059390776 -0.034236234 0.106365755 -0.15852952
0002f0 8b 3f c4 bd c1 9e 40 3d 69 03 b2 bc fb e2 6c 3d
       -0.09582432 0.0470264 -0.021730142 0.057833653
000300 98 a1 95 bd b3 65 e1 bd 7b 49 99 bd 28 3d ba bd
       -0.07306212 -0.11005726 -0.074847184 -0.09093696
000310 bd f1 68 3d 71 7e a7 bc 98 20 d4 3c 25 9a 4c 3d
       0.056871165 -0.020446034 0.025894448 0.04995169
000320 b0 9e 95 3d 19 57 e3 bc ed 12 67 3d 7e 99 a9 3d
       0.07305658 -0.027751492 0.056414533 0.082812294
000330 3b 39 6d bd 77 2d 11 be ea b9 86 3d b8 c4 df bd
       -0.057915907 -0.141775 0.06578429 -0.10926193
000340 9e 5a e5 3d b0 0c 03 be c5 e0 05 be 4e a8 61 3d
       0.111989245 -0.12797809 -0.13074024 0.05509215
000350 f4 14 3f bd cb 39 e0 bd b6 e4 53 bd c1 f4 ca 3c
       -0.04665084 -0.10948523 -0.051731788 0.02477491
000360 a3 37 51 bd 30 72 e6 bd f6 c9 1d 3d 79 1f 33 bd
       -0.05107845 -0.11252248 0.038522683 -0.043731187
000370 31 07 b2 3c fd 1e 55 bc b1 f3 54 3d bf 71 a9 3d
       0.021731945 -0.013007876 0.051990215 0.082736485
000380 44 25 b5 bd e7 82 76 bd b1 b5 0c 3d 09 ed 0d bd
       -0.088449985 -0.060183432 0.034352962 -0.034649882
000390 6b 3e 1f 3d 04 5e 09 3d 3f 26 59 bd ba 2b 0c 3e
       0.038877886 0.033536926 -0.05301499 0.13688555
0003a0 88 e0 00 be fd 87 00 be 6f a9 88 bc f5 fe f3 3c
       -0.12585652 -0.12551875 -0.016682355 0.029784659
0003b0 a2 f6 e8 3c ac b1 36 3d c5 79 7c 3d b8 7f 8e bc
       0.028437916 0.044603035 0.061639566 -0.017394885
0003c0 64 86 af bd b9 75 70 bc 70 9d 0e be 65 67 b9 3c
       -0.08570555 -0.014676505 -0.13927245 0.02263231
0003d0 85 ec e2 bd e6 7d a8 3d 93 c9 9f bd e3 25 43 3d
       -0.11080269 0.08227138 -0.07802119 0.047643553
0003e0 ca e7 2c bc 92 3c 0c 3e eb 0a b1 bd 63 41 0f be
       -0.01055331 0.1369498 -0.086446606 -0.13989787
0003f0 9a ef ab bd 5b a3 2e 3d 77 0f 1f be eb bb c1 3c
       -0.0839531 0.042636257 -0.15533243 0.023649177

lstm.bias_ih_l0 f4 [256]
000000 17 2e b6 3c b2 ed ad bd d8 4c 71 ba e2 b9 e5 bd
       0.022238774 -0.084926024 -0.0009204871 -0.11217095
000010 3d 96 00 bd 67 7a 9e bd d6 d6 ba 3d df 32 bb 3a
       -0.03139328 -0.0773819 0.09123008 0.0014282129
000020 54 37 89 3d 10 94 31 3d 59 fe f3 3c fa 6f b0 bc
       0.06700006 0.043354094 0.029784368 -0.02153777
000030 7c 54 95 3d 3d f0 a3 bd 08 62 21 bd 65 1b 3c 3d
       0.07291505 -0.08004806 -0.03940013 0.045924563
000040 ff 90 aa bd d7 55 e4 3d 61 83 83 bc 8d 97 a9 3b
       -0.08328437 0.11149185 -0.016053857 0.005175537
000050 52 18 09 3d c7 32 93 bd 3c 4c e7 bd 24 c5 a4 3c
       0.03347046 -0.071874194 -0.112938374 0.020113535
000060 b2 77 7d 3d b9 2b 82 3c a4 07 f5 bd aa 27 e3 3d
       0.06188173 0.01588999 -0.11964348 0.1109155
000070 b2 08 84 bd c5 56 92 bd 53 fd 7e 3d 26 88 81 bd
       -0.06446971 -0.07145456 0.062253308 -0.063247964
000080 a2 9c 26 3e a2 24 03 3e 65 e5 40 3c 66 ca d8 bd
       0.16270688 0.12806943 0.011773442 -0.105854794
000090 32 a1 17 3e 60 54 14 bd fb 3d 26 3d 84 e1 06 3e
       0.14807585 -0.03621328 0.040586453 0.13171965
0000a0 fb 75 d9 bd 8b 7e f1 bc b3 5e 40 bd 16 0d 96 b9
       -0.10618206 -0.029479286 -0.046965312 -0.0002861998
0000b0 39 03 a1 3d 2b 81 0b bc 72 d9 d8 bc 10 6f 85 3d
       0.07861943 -0.008514683 -0.026470874 0.06515324
0000c0 f1 be f3 3c 86 ce 68 3c ef 2b 98 bc 6a 63 f7 3d
       0.029754134 0.014209395 -0.018575637 0.120795086
0000d0 1b 4d de 3d 2f 03 9b bd 4b 49 dc 3d 94 d4 ce 3d
       0.108545505 -0.075689666 0.10756167 0.1009914
0000e0 ec 2f f4 3d 68 30 ee bd d4 2e 15 bd 67 5f d7 bd
       0.11923203 -0.116303265 -0.036421612 -0.105162434
0000f0 09 7d c9 3d b7 78 bb bd 7c 6e 2c bd 48 cc b0 bd
       0.09838302 -0.09153884 -0.042097554 -0.086327136
000100 ff 9e 2e 3b ef e4 ef bd a9 c0 00 3b fd 5d 94 3c
       0.0026645062 -0.117135875 0.0019646084 0.018111223
000110 b1 2f 57 3d 32 05 54 3c a5 51 0a 3e fd 49 80 bd
       0.052535716 0.012940692 0.13507707 -0.06264112
000120 e5 0d 62 bd a2 47 e1 3d 64 fa 98 3d 08 7a d6 bd
       -0.055189032 0.10999991 0.07469633 -0.10472494
000130 75 23 8e bd 6d 10 ab 3c 27 a3 81 3d ba 8b 2b 3c
       -0.06940357 0.020881856 0.06329947 0.010470325
000140 d1 b0 44 3c 3e d1 8c 3d 27 af e9 3d 8e cf c3 bd
       0.012005047 0.06875847 0.11410361 -0.09561072
000150 ae cc 11 3d e3 f1 ca bd fd 14 a9 bd 33 70 2c 3d
       0.03559559 -0.099094175 -0.08255956 0.04209919
000160 78 f5 1e 3d 86 30 fa bd bf af 70 3d 3f 8c 8c 3c
       0.038808316 -0.12216286 0.058761355 0.017156718
000170 1b 84 80 bc 7f bf 25 3d dc f4 c5 bc 48 8c 0a 3d
       -0.015687993 0.040465828 -0.02416461 0.03382519
000180 5e 61 5d bd d2 75 01 bd fe 86 28 bd b4 fc 5e 3d
       -0.054047935 -0.031606503 -0.041144364 0.054440215
000190 f3 b4 58 3d 3a 5b 99 bd af 38 71 bd b9 96 bf bc
       0.05290694 -0.07488103 -0.05889195 -0.0233873
0001a0 92 13 34 bc c0 f5 24 3d 36 b9 97 3d e3 e3 e4 bd
       -0.010990994 0.040273428 0.07408373 -0.111762784
0001b0 c3 f4 cd 3d eb 81 ed bc b1 6a 6f 3d 59 9b a6 bc
       0.1005645 -0.028992614 0.05845136 -0.020337747
0001c0 4f da 0e bd 3b 65 bb bd 26 24 28 3d 49 a7 b4 3d
       -0.034876164 -0.091501676 0.0410501 0.088209696
0001d0 f4 32 64 3d 69 30 10 bd d7 81 8e 3d 3d 3c f0 3c
       0.055712655 -0.035202418 0.06958359 0.029325599
0001e0 f7 0a 94 3d 7a 2b 4a bc 1f 72 bd bd ff 69 b6 bc
       0.07228654 -0.012339467 -0.092502825 -0.02226734
0001f0 9e d3 ee 3d 56 15 3e bd 8b 31 0c 3c fc 60 ef bd
       0.116614565 -0.046407066 0.008556734 -0.1168842
000200 90 e0 49 3c fe c7 1f be 02 28 8d bd 50 a4 be bd
       0.012321606 -0.15603635 -0.068923965 -0.09308684
000210 ac 9c fd 3d 65 d6 2e 3d c4 43 a6 bd eb 37 da 3d
       0.123833984 0.04268493 -0.08118394 0.10655197
000220 09 a2 3e bc f4 39 bd 3c a0 b4 8e 3d db 89 f7 3b
       -0.011635312 0.023098923 0.06968045 0.0075542754
000230 7b 05 0b be af 03 06 be 84 ab ec bc 50 a9 82 3a
       -0.1357631 -0.13087343 -0.028890379 0.0009968672
000240 87 ad ae bc f6 bc ba bc 69 d4 20 be d5 31 18 3d
       -0.021322979 -0.022795182 -0.15706028 0.0371569
000250 28 c7 45 3d a2 13 df bd 8f 58 ad bd 59 55 1a bd
       0.048285633 -0.108924165 -0.08464157 -0.03767905
000260 d7 65 af bd 41 8a b5 3d c6 64 14 3d f4 c6 13 3e
       -0.08564346 0.088642605 0.036228918 0.14431363
000270 70 4e eb 3c 6e f9 ad 3d ad 4b 54 bd 36 7f 87 bd
       0.028723925 0.084948406 -0.051829983 -0.066160604
000280 5c 5b 87 bd ee e3 02 3b ee 2e 93 3d ac 53 d9 bd
       -0.06609222 0.0019972282 0.071866855 -0.10611662
000290 cd 6d d5 3d 07 5a 97 3d 44 1c c9 bd 22 43 c3 bd
       0.104213335 0.07390218 -0.09819844 -0.09534289
0002a0 b4 fb 43 bd f5 37 7c 3d 5e 48 19 3d 70 22 c2 bd
       -0.047847465 0.061576802 0.03742253 -0.09479225
0002b0 fb f8 21 bb c5 81 b8 3c 51 3a db 3d 47 89 5d bc
       -0.0024715054 0.022522816 0.10704482 -0.013521499
0002c0 86 0b a6 bc fc 5b ed bd 55 af c2 bd 5d ae 84 3d
       -0.020269167 -0.1158981 -0.09506098 0.0647857
0002d0 10 1b db 3d f6 76 bd 3c 65 84 d7 3d a4 1a 22 3d
       0.10698521 0.023128014 0.10523299 0.039576188
0002e0 e6 9e 19 be 24 44 bd 3d 3d 94 09 bd bb e2 cb bd
       -0.15002021 0.092415124 -0.033588637 -0.09955355
0002f0 24 da f1 3d c5 bf 0e bd 7e b2 0d be e0 19 fb bd
       0.11809185 -0.034850854 -0.1383762 -0.12260795
000300 04 09 c9 bd c6 4e 66 bd f9 01 dd 3d 2c 10 f1 3d
       -0.09816173 -0.056227468 0.10791392 0.11770663
000310 98 62 0b 3e e2 2f 9e bd 7b 24 a8 bd da d7 17 3d
       0.1361183 -0.07723977 -0.08210083 0.037071086
000320 e0 c8 81 3d 96 64 ba 3d 88 39 03 be 1d cb 35 bd
       0.06337142 0.091012165 -0.12814915 -0.044383157
000330 25 09 b3 bd cf c0 6d bd b1 49 62 bc c1 e0 e1 3d
       -0.087419786 -0.058045205 -0.013811515 0.110291965
000340 1b 28 96 bd c3 ba cd bd 68 de 00 3b 80 27 34 3d
       -0.07331868 -0.100453876 0.0019663814 0.043982983
000350 6d 17 86 bd e5 2f a6 3d a0 78 b5 bd fe c0 fb bb
       -0.06547437 0.08114604 -0.08860898 -0.0076829186
000360 07 9e c4 bc 62 75 0f bd f5 b9 2e bd 84 0d f7 3c
       -0.024001135 -0.035024054 -0.04265781 0.030157812
000370 95 62 fd bd 11 c8 30 bc 6f b1 a8 bd df 44 47 3d
       -0.12372319 -0.010789887 -0.08236968 0.048649665
000380 3b 51 3b 3d 32 fa c5 3d 15 a5 2d bd 73 36 8b 3c
       0.045731764 0.096668616 -0.042393763 0.016993737
000390 85 10 21 3e eb c2 ad 3d 90 58 bb bd 74 de 11 3e
       0.15728958 0.08484443 -0.09147751 0.14245015
0003a0 21 4f 0d 3e 94 11 e3 bd f3 43 90 bd e5 e3 a8 bd
       0.13799717 -0.11087337 -0.0704421 -0.082465924
0003b0 f2 e2 82 3d bb 15 fa bc 0d d9 05 3e bb d4 1f bc
       0.06390943 -0.03052794 0.1307108 -0.009755309
0003c0 ae 29 2b bd 60 53 80 bd 9f ce bf bd 3c dc 9f bc
       -0.041787796 -0.062659025 -0.09365582 -0.019514196
0003d0 4f 37 d3 bd 2e 44 b0 3d d4 2b 7f 3d 86 7d 92 3d
       -0.10313284 0.08606754 0.062297657 0.07152848
0003e0 c3 76 48 bd 55 45 2c 3d d4 93 8a bc 36 ef 83 3d
       -0.048941385 0.042058308 -0.016916193 0.0644211
0003f0 cb 4c 21 3d 7c a3 ac bd 11 e4 24 bd 1b 74 00 be
       0.039379876 -0.0842962 -0.040256564 -0.1254429

lstm.bias_hh_l0 f4 [256]
000000 eb d6 a7 3d a7 c9 a6 3c a6 92 09 3d fa c9 ca bd
       0.08195289 0.020359827 0.03358712 -0.09901805
000010 a3 96 e5 39 c3 25 1d 3d 57 5f 8b 3d 4a 6f 0e 3d
       0.00043790517 0.03836609 0.06805294 0.034774102
000020 18 b2 fa 3d ca 0d a8 3d 4c 0a 4f 3d f6 05 16 bb
       0.12241 0.08205755 0.05054693 -0.0022891737
000030 ea 07 9d bc 91 06 be bd 1b cf 7c bd 3d 52 e4 3d
       -0.019168813 -0.09278596 -0.06172095 0.11148498
000040 70 b3 5c bd 08 82 04 3e a5 12 80 bd e1 8d a8 3d
       -0.053882062 0.12940228 -0.06253556 0.08230186
000050 dc 5c 76 bd 32 d1 44 3b 27 57 40 3d 7e 1b ac 3c
       -0.06014715 0.0030031917 0.046958115 0.021009203
000060 9d c7 1e 3c fb 67 7a bd 10 57 32 3c f3 7d 90 3d
       0.009691146 -0.06113432 0.010885015 0.07055273
000070 7e 63 44 3d 99 05 4f 3d 83 bb df 3d ea 91 00 bd
       0.047946446 0.050542448 0.10924437 -0.031389154
000080 bc 57 51 3d d1 89 4d 3d ed e5 6b 3d 06 1d cf 3d
       0.05110906 0.05018026 0.05759232 0.10112958
000090 99 18 19 3e 0a a1 a7 3c 6e 73 fb bd 8a 38 c2 3d
       0.1495079 0.020462532 -0.12277876 0.0948344
0000a0 c2 76 30 3d ce 9d 16 be e2 3e f6 3d 18 57 1b 3e
       0.043082006 -0.14708635 0.12023713 0.15169942
0000b0 00 fb 92 bc f1 3a bc 3c 5c 8f b5 3d d3 bf c9 3d
       -0.017941952 0.022977324 0.08865234 0.09851041
0000c0 e0 31 91 bd 17 5f 19 3e 62 74 39 3d 3c 44 62 3d
       -0.07089591 0.1497768 0.045277007 0.055240855
0000d0 34 ee 8e bd f9 4a 0f be 6a 99 82 bd 22 77 93 bc
       -0.069790274 -0.13993444 -0.06376918 -0.018001143
0000e0 5e f0 41 bd 58 11 31 bb 94 6f 68 3d 29 23 99 bd
       -0.047348373 -0.0027018394 0.056747034 -0.074774094
0000f0 07 e3 d4 3d 7a 49 9c 3d df e0 a4 bd bb a5 12 be
       0.103948645 0.07631202 -0.08050703 -0.14321034
000100 1c be 0d bd fe 40 bf bc 1f 51 cd 3c 70 1b 61 bd
       -0.03460513 -0.02334642 0.025063096 -0.054957807
000110 85 8d 86 bd 87 e0 72 bd 32 af a6 3d c6 62 80 3d
       -0.065699615 -0.059296157 0.081388846 0.062688395
000120 3c e7 e3 3c 70 a3 9d bd ea 0f b3 3d c0 40 cc bd
       0.027820222 -0.07697189 0.0874327 -0.099732876
000130 9f 94 ae 3c 16 76 62 3d 83 fb 88 3d ba 14 ba 3d
       0.021311102 0.055288397 0.06688597 0.090859845
000140 f7 ab 76 bd 1f 85 85 bd 85 ab a9 3d c3 fb 49 3d
       -0.060222592 -0.065195315 0.08284668 0.049312364
000150 cb 5c 04 bc a9 0f dd 3d 95 92 e3 3d 78 27 31 3d
       -0.008078764 0.107940026 0.11111943 0.04325053
000160 de 97 94 bd 33 57 8c 3d 45 b0 8e 3d bb 32 32 3d
       -0.07255529 0.068525694 0.069672145 0.04350541
000170 ce 7a ad 3d 31 6e ea bd a2 e8 9d bc 34 3a ae bd
       0.08470689 -0.114467986 -0.019275967 -0.08507195
000180 f5 7c 2b 3e cd 2b 4a bd 2a 28 cd bc 39 bd 3b 3d
       0.16746886 -0.049358178 -0.025043566 0.045834754
000190 d7 72 5d bd ea 1c f6 3d 5f 3a 78 bc 19 93 e1 3d
       -0.054064598 0.12017234 -0.0151506355 0.11014385
0001a0 c7 e2 e5 3d 18 ca a9 bc f0 0f 4f bc d1 93 cc bd
       0.11224895 -0.020726249 -0.012638077 -0.09989131
0001b0 cb 14 82 3d 52 9b e8 bd 83 db d2 bc 32 8b 74 3d
       0.06351622 -0.1135775 -0.025739437 0.05970306
0001c0 63 39 d3 bd d9 a9 43 3d 9e 2e 2f 3d 13 3a d3 3d
       -0.1031368 0.0477694 0.042769067 0.10313811
0001d0 3c ad 0e 3e c4 a6 8e 3d 83 c1 cb 3d 4a 83 06 be
       0.13933271 0.06965402 0.09949019 -0.1313602
0001e0 3c 98 0a 3e 82 d2 7d 3c cb 8d a1 bc b8 7f 8b 3d
       0.13534635 0.0154920835 -0.019720932 0.0681147
0001f0 e9 3e c7 3d ef 12 eb 3c 63 0a 99 3d 3c 7d cb bd
       0.09728796 0.028695552 0.07472684 -0.09935996
000200 a0 5c 05 bc 04 b7 03 ba 61 03 2f 3d 3a 91 b6 bc
       -0.008139759 -0.0005024525 0.04272783 -0.022286046
000210 8c ec cd bd 0c 47 67 bc eb 45 cf bd 6f 3c c3 bd
       -0.10054883 -0.01411606 -0.10120758 -0.09533011
000220 1c ec 9c 3d e4 5b 4e 3d 7e ae 37 bd cf c7 0e bc
       0.07662222 0.050380602 -0.044844143 -0.00871463
000230 c6 2d d3 3c 7a dc bc bd bc cc 33 3d a5 45 11 be
       0.025778662 -0.0922174 0.04389642 -0.14186724
000240 21 e8 74 3d 43 d0 fa bc bc eb 42 be bc a1 b5 3c
       0.059791688 -0.030616885 -0.19035238 0.022171848
000250 c2 2b fe bd bd e1 8a bd ed f8 24 3d 15 0b 4d be
       -0.1241069 -0.067813374 0.040276457 -0.20023759
000260 15 c5 e8 3d b3 b9 69 bd ee 7a e5 bd e2 8b 07 3e
       0.113657154 -0.057061862 -0.112050876 0.13236955
000270 b7 77 14 bc ff f0 5d 3d 1b 58 58 bd d6 b9 83 bb
       -0.009061745 0.05418491 -0.0528184 -0.004019956
000280 b5 9a 8f bd 0b f1 52 3d 56 89 98 39 2b 04 0f 3d
       -0.0701193 0.051499408 0.00029094022 0.034916084
000290 67 04 a3 bd d9 70 47 3d 69 90 90 3c 72 0b ef 3d
       -0.07959824 0.048691604 0.017646985 0.11672105
0002a0 7a a3 6e bd 9f 40 c8 bd a6 04 c4 ba ee 61 97 3c
       -0.058261372 -0.097779505 -0.0014954999 0.018479314
0002b0 44 2d 53 bd c6 a1 df 3d 27 7a c5 39 8b 78 34 bd
       -0.05155684 0.10919528 0.0003766578 -0.04406027
0002c0 6a 04 c8 bc 51 db 7b 3d af 8b b7 3d c6 fc e9 bc
       -0.024416167 0.061488453 0.089621894 -0.028562915
0002d0 40 a8 bd 3d bd 27 75 bd 09 ea de 3d 37 2a 93 bc
       0.09260607 -0.05985235 0.108844824 -0.017964466
0002e0 f9 c5 f6 bd b0 9a f4 3d d0 7c 16 be ea 79 35 bc
       -0.12049479 0.11943567 -0.1469605 -0.01107643
0002f0 e1 6a 03 3e e7 cc 6b bd 8e d5 b8 3c 9b c7 35 3d
       0.1283374 -0.057568457 0.022562768 0.04437981
000300 26 e4 d3 3d 1e f8 90 bc 67 41 d5 bd 75 e4 d2 3d
       0.1034625 -0.017696436 -0.10412865 0.10297481
000310 95 69 f3 3d d0 c5 ef bd 56 7e a2 3b 79 55 62 3d
       0.118853725 -0.117076516 0.004958908 0.055257294
000320 1c 01 21 bd 4e 11 ab 3d c6 52 45 bd b4 3e 69 bd
       -0.0393077 0.0835291 -0.048174642 -0.056944564
000330 cf ac 14 be bc 5b 98 3c 68 e6 c2 3b ad 35 9a 3d
       -0.14519046 0.01859843 0.0059478767 0.07529769
000340 7f 8e 9e bd 2a 73 a2 3d 76 d9 81 bd 94 10 6e 3d
       -0.07742023 0.07932122 -0.063403055 0.05812128
000350 0f c0 1e 3e 6f 99 03 be 63 89 c6 bd 01 77 dc 39
       0.15502952 -0.12851499 -0.09694173 0.00042050335
000360 fa 06 f3 bd eb a8 d3 3d 14 13 ca 3d e7 7f 72 3c
       -0.11866565 0.10334953 0.0986692 0.014801002
000370 cc 88 a9 3d 64 2b c3 3d d7 86 85 bd 98 b4 f0 3b
       0.08278045 0.095297605 -0.06519859 0.007345747
000380 83 64 ee 3d a2 69 b2 bc 43 f3 e8 3d d2 4d 87 3c
       0.11640265 -0.021778885 0.113745235 0.0165166
000390 b1 43 a1 3d f3 3a 43 bc ee 0b fd bd 1a 67 c2 3d
       0.07874239 -0.01191591 -0.12355791 0.09492321
0003a0 5b 93 15 3e 4e 2c 35 bd 4c 18 b1 3d 0e 87 c3 3d
       0.14606993 -0.044231705 0.086472124 0.09547244
0003b0 5e 62 a8 3d db b9 c1 3b 7a 21 a7 3d 67 bc 87 3d
       0.08221887 0.0059120483 0.08160682 0.06627732
0003c0 a5 30 f6 3d 66 d0 a6 3d 8b 73 e7 3d 7f 1c 16 bc
       0.12020997 0.081452176 0.11301335 -0.009162067
0003d0 b8 08 0a 3e 98 58 85 bd a9 49 95 bc b9 2d 5f 3c
       0.13479888 -0.065110385 -0.0182236 0.013621741
0003e0 71 7e f8 3d b7 71 f9 bc 80 7e 0a 3d e7 5b 02 3e
       0.12133492 -0.030449731 0.033812046 0.1273037
0003f0 10 2f 75 3d 8e b9 c9 bd fd 9a fd bd 57 c9 04 be
       0.059859335 -0.09849845 -0.12383077 -0.1296743

lstm.weight_ih_l1 f4 [256, 64]
000000 56 24 29 bd d0 26 22 3e 7e 30 70 3c 15 4e 8c 3d
       -0.04129442 0.15835118 0.014659999 0.068508305
000010 03 b2 91 bd 2e c2 88 3d df 84 57 be 4e d8 f7 bc
       -0.07114031 0.06677662 -0.2104678 -0.03025451
000020 a2 c6 2f bd 7e 2d 36 be 59 bf 09 bd c8 aa 6a 3c
       -0.04291404 -0.17790791 -0.03362975 0.014322944
000030 d6 9e 9e bd fb 7d 06 be 0d cd 49 3e 62 f1 a2 3c
       -0.07745139 -0.13133995 0.19707127 0.01989049
000040 e5 54 d5 bc 7e 82 67 3d 4b e3 96 3c 39 ec 1e 3e
       -0.026041457 0.05652093 0.018418929 0.155198
000050 91 ed b0 bb d0 d1 e3 3c fd 83 86 bd ed 1d 13 be
       -0.005399414 0.027810007 -0.065681435 -0.14366885
000060 a8 56 c3 3d 20 6b 8d 3c 43 b0 cb bc 6d aa 27 3d
       0.09538013 0.017262995 -0.024864322 0.040934015
000070 25 24 a0 bc 8a 83 f4 bc 1c 24 f4 3a 17 0d 9f bd
       -0.019548485 -0.029847879 0.0018626484 -0.077661686
000080 d5 a0 be 3d db 4c 75 3d 72 47 db 3d 97 75 df 3d
       0.0930802 0.05988775 0.107069865 0.109111
000090 1e 0c da bd 6b 4d 09 3e a7 6b ff bc 3b 91 27 3c
       -0.106468424 0.13408439 -0.031179262 0.010227497
0000a0 ce 07 e8 bc 89 8c d6 bd 6c 10 6a 3e e8 6f 0b bd
       -0.028324034 -0.10476024 0.22857827 -0.03404227
0000b0 4f 80 43 bd 68 28 01 bd 11 aa 33 3d 69 c6 ee 3d
       -0.047729786 -0.031532675 0.04386336 0.116589375
0000c0 9e b5 b0 bd bc 97 9d 3d 9b db af bd c8 70 11 be
       -0.08628391 0.07694957 -0.08586808 -0.14203179
0000d0 94 ed f0 3c 34 d7 83 bd 9f 66 fe 3c f7 24 8a bb
       0.029410161 -0.06437531 0.031054793 -0.0042158323
0000e0 93 b8 1d 3a 85 95 bf 3b 9f 60 1f 3e 7a 99 e4 bb
       0.00060165784 0.0058466815 0.15564202 -0.0069763036
0000f0 30 71 10 be f5 57 07 3e 8a 87 1c bd 1b 9d b9 3d
       -0.14105678 0.13217147 -0.038215198 0.090631686
000100 73 58 aa bd d4 d0 02 3d f8 29 ea 3a 0f b0 17 bd
       -0.083176516 0.031937435 0.0017865291 -0.037033137
000110 58 63 e3 bd cc 33 e3 3d ae d8 83 3b c3 79 b2 3d
       -0.11102933 0.11093864 0.004023633 0.087146305
000120 9b dc f6 bd bf 2c a8 bd 95 1f c1 3c e9 54 b0 3d
       -0.12053796 -0.0821166 0.02357463 0.08609945
000130 6d b9 7f 3d 94 a9 fa bd 8e f1 f3 3d 28 e1 c4 3c
       0.062432695 -0.12239376 0.11911307 0.024033144
000140 b7 9f 0b 3d f4 8e 05 be 30 0e a8 bd 06 6c f6 3d
       0.034087863 -0.13042814 -0.08205831 0.120323226
000150 3c 8b 30 3c 7c 6e c1 3d 37 d1 73 3d aa 1e 06 3d
       0.010775384 0.09444901 0.059525695 0.032744087
000160 9a b8 84 bd 4d ca dc bc 00 03 94 3d 5a 79 25 bc
       -0.064805225 -0.026951933 0.07227135 -0.010099733
000170 27 39 ef bc 12 c3 7b 3d 94 14 cb bd f5 19 4b bd
       -0.029202057 0.06146533 -0.09916034 -0.0495853
000180 80 a1 37 3e ac 2e 2e 3d 81 a2 1a 3e 71 93 17 3d
       0.17932701 0.04252498 0.15101053 0.037005845
000190 8f 26 9c bc 24 c0 85 bd 19 42 a4 bd b7 08 fe bd
       -0.019061355 -0.065307885 -0.080204196 -0.12404006
0001a0 3d 2d b7 bd fc 97 98 3d 62 15 16 3d 87 88 6e 3d
       -0.089441754 0.07450864 0.036641486 0.05823567
0001b0 fc 7b 76 3d 7b b5 e9 3c f3 b4 6c bd 73 4c 80 bd
       0.060176834 0.02852892 -0.057789754 -0.062645815
0001c0 a6 30 33 bd 5c c1 64 3d 77 4e 77 3c 08 8c 18 3c
       -0.043747567 0.055848464 0.015094391 0.00931073
0001d0 e1 fb 71 bd 64 b2 ce bd e5 83 a1 bd b4 b7 10 3e
       -0.0590781 -0.10092619 -0.07886485 0.14132577
0001e0 f9 c5 5b bc 28 a7 07 3e 8f 4a 18 3d 40 d1 12 3d
       -0.0134139 0.13247359 0.03718048 0.035844088
0001f0 6c 22 35 3b 0d af 0f be de 61 7b bc bb 12 d1 3c
       0.0027638925 -0.1403162 -0.015343158 0.025521627
000200 54 1f 05 3e 7c 76 cc 3d ca 33 34 bd 2d f0 e7 3b
       0.13000232 0.099835366 -0.043994702 0.0070781917
000210 9c 4c 74 3d fb 0f af bc 39 b7 7c bd 9a 54 d4 3d
       0.059643373 -0.021369925 -0.061698172 0.10367699
000220 9a b1 8c bc e4 ce c5 3d 6d 98 86 bd 6a 1b ac 3d
       -0.01717453 0.09658602 -0.06572042 0.08403666
000230 db 04 f8 bb 04 c7 c9 bc b0 e7 a6 3d 65 1e 03 3e
       -0.007568938 -0.02463103 0.0814966 0.12804563
000240 98 65 9f bd 04 6b c0 3d 52 03 0a 3d cf de 34 3d
       -0.07783049 0.093954116 0.033694573 0.0441578
000250 23 4f cc bd ac a6 17 be 5c 89 cd 3d b6 66 9f bd
       -0.09976032 -0.14809674 0.10035965 -0.077832624
000260 67 c5 a9 3d 34 0f a9 3d 3f 32 97 3c 8a 63 ab 3c
       0.08289605 0.08254853 0.018456576 0.020921487
000270 f8 a1 95 3c ef e9 e3 3d 5e 49 70 3c b0 75 69 3d
       0.01826571 0.11128604 0.01466593 0.056997
000280 5e 5d a0 3d c5 97 be bc ff e2 10 bc 27 e9 2b bc
       0.078303084 -0.023265729 -0.008843183 -0.0104926
000290 4e 63 97 3d cb be 02 3d a6 60 d6 bc 75 32 35 3c
       0.07391988 0.031920236 -0.026169132 0.011059393
0002a0 8b 77 a8 bc e6 fd 13 be a0 48 1a 3e 1e 6e 58 3d
       -0.020564815 -0.14452323 0.15066767 0.05283939
0002b0 ea f2 1e be 66 70 11 3c 65 6e e8 bb 78 1d 13 3e
       -0.15522352 0.0088768955 -0.007093238 0.1436671
0002c0 71 72 9e bd 83 bb 0d 3d 9f af 6e 3c fa 9f 6a bd
       -0.07736672 0.034602653 0.0145682385 -0.05728147
0002d0 37 cf 44 bd d2 b7 02 bd 47 81 2a bd 57 3d b8 b9
       -0.048049178 -0.031913586 -0.041627195 -0.00035140917
0002e0 6d ca 80 bd 46 78 f7 3d db 3c 03 3d eb a2 b1 ba
       -0.0628861 0.12083487 0.03204046 -0.0013552582
0002f0 5b 6e 2a be 13 51 ba 3d 60 f5 5c bd 74 22 0e bd
       -0.1664366 0.09097495 -0.053944945 -0.034700826
000300 69 a7 1e 3d 5e ac 24 3e d8 a1 47 be 7b dc dd b8
       0.038733874 0.16081378 -0.19495332 -0.00010579169
000310 00 4e 05 be 1a 70 ed 3d f3 0a f4 bd 16 f5 a7 3d
       -0.13018036 0.11593647 -0.11916151 0.08201043
000320 37 1b 0b 3d 59 8e bc bd cb f4 bf bb c9 6a 19 3c
       0.0339615 -0.09206838 -0.005858039 0.0093638385
000330 57 45 ce bd a2 25 e8 3c 4c 44 37 3e b2 e1 da 3d
       -0.10071819 0.028338257 0.17897147 0.10687579
000340 9c 35 8f 3d 23 f5 92 bd 12 57 0d bc 23 14 f8 3d
       0.06992647 -0.07175662 -0.008626716 0.12113216
000350 1e 8c 01 bd 7e 2d 3c 3d f7 a5 fa bd 6f 4d 04 3d
       -0.031627767 0.045941822 -0.122386865 0.03230041
000360 b1 12 1d 3e d0 dd b7 bd 3a 01 8a 3a 6a be f4 3c
       0.15339161 -0.08977854 0.001052893 0.029875953
000370 7c 2e 38 bd 02 7e cc 3d 79 e1 61 bd 49 dc 11 bb
       -0.044966206 0.099849716 -0.055146668 -0.0022256544
000380 c2 a2 7a 3d f8 17 e4 bd ac 36 dc 3d bd d8 69 3c
       0.061190374 -0.11137384 0.10752615 0.014272866
000390 fe 86 a0 3d 1f ee 9b 3d 3b b7 db bd 9b 1d a1 bc
       0.07838248 0.07613777 -0.10728308 -0.019667437
0003a0 a4 1f f3 3d 2a df a4 bd b0 14 1f 3e ac d5 2a bc
       0.11871269 -0.08050378 0.15535235 -0.01042692
0003b0 d3 ca a6 3c a1 94 2f 3c 87 02 08 3d 7d 30 c7 bd
       0.020360386 0.010716588 0.033205535 -0.09726045
0003c0 bb 48 66 3c 63 50 d6 3c 8d f2 21 be 5c a5 1d be
       0.014055426 0.026161378 -0.15815182 -0.15395111
0003d0 ac 8a 17 3e 46 c9 e0 3d 9b f8 b5 bc ed b8 6a bd
       0.14798993 0.1097589 -0.02221327 -0.057305265
0003e0 30 12 36 3c 13 a8 14 3e b3 22 24 3e 9a 99 e8 bd
       0.011112735 0.1451724 0.16028862 -0.11357422
0003f0 6c 11 52 bd 0a 29 19 3d 60 2f cc bb 33 dc 28 3e
       -0.051286146 0.037392654 -0.0062312335 0.1649025

lstm.weight_hh_l1 f4 [256, 64]
000000 a7 76 f3 3d 53 28 7e bd f4 f0 f3 3d 4e 28 27 be
       0.118878655 -0.062050175 0.119111925 -0.16323969
000010 9a 9c 00 be 38 57 d3 bd b0 89 f9 bb 15 ca 13 bd
       -0.12559739 -0.1031937 -0.0076152906 -0.036081392
000020 07 d1 a0 3c 26 de ae bc d8 7e 39 be c9 8b 13 3e
       0.019630922 -0.021346163 -0.18114793 0.14408793
000030 47 04 f9 bd c1 0a 46 b9 e4 60 11 bc 1d f9 0b 3d
       -0.12159019 -0.00018886758 -0.008873198 0.03417312
000040 f5 a7 6e 3d 77 15 a9 bc f1 42 0b 3e bc 7e 94 3c
       0.058265645 -0.020640118 0.13599755 0.018126838
000050 5e d6 2d 3e ae 20 87 bd 22 26 68 3d 41 8e d0 3d
       0.16976306 -0.0659803 0.05667699 0.10183383
000060 a7 97 b9 3d ac 07 1e 3e 54 68 2a be 65 23 19 3e
       0.090621285 0.15432614 -0.1664136 0.14954908
000070 4c 0e 20 3d ce 55 64 3c 2b a4 2b be 1d a5 86 3d
       0.039076135 0.013936473 -0.16761844 0.065744616
000080 c9 d1 1f be d9 48 30 bd 1b ca 98 3d 6e 9e 9b 3d
       -0.1560737 -0.043038223 0.074604236 0.075985774
000090 2e bd 15 3e 14 4c 32 bd a2 84 34 3e 40 22 82 3d
       0.14622948 -0.043529585 0.1762872 0.06354189
0000a0 9f d0 75 3d bb 43 1f be 58 c6 6f bc e4 70 ee bc
       0.06001341 -0.15553181 -0.014634691 -0.029106565
0000b0 7a 37 fd 3d 74 5e 3f bd d0 e5 0c 3e 0f 79 5a bd
       0.12364097 -0.046720937 0.13759542 -0.053338107
0000c0 96 bd e1 bd a6 da b4 3c c2 7f 32 bd 14 c8 d4 bd
       -0.11022489 0.022076916 -0.04357887 -0.103897244
0000d0 a8 12 12 be 59 0f 89 3b 15 2f a4 3d ca 9b 36 3d
       -0.1426493 0.004182738 0.08016793 0.044582166
0000e0 5c 68 24 3d af fc c7 bd f6 04 11 be 4e 9d 1e be
       0.040138587 -0.097649924 -0.14162049 -0.15489694
0000f0 53 35 a3 bc 2d af 1f 3c 14 2e b9 3d 8e 97 47 bd
       -0.019922888 0.009746355 0.09041992 -0.04872852
000100 fe 61 1a 3c dc 74 82 bd 26 cb 0d bc 1a 5a 79 bc
       0.009422777 -0.063699454 -0.008654391 -0.015219236
000110 6a 0b 37 bd db 1c 95 3d c4 e0 de bd b0 68 1e bb
       -0.04468862 0.07280894 -0.108827144 -0.0024171285
000120 f3 93 16 bd dd ca 59 bd ce c4 5b bd e2 8f 70 3d
       -0.03676219 -0.05317198 -0.053654484 0.058730967
000130 59 ea 89 bd fa 21 d0 3d 8d da 14 3d d5 29 c9 bc
       -0.067341514 0.101627305 0.03634124 -0.02455608
000140 aa 05 85 3c f4 d2 e9 3c 93 70 67 3d 3b 4c dd bd
       0.016238052 0.028542973 0.056503844 -0.108055554
000150 6e 6a 09 3e dc 7e fc bd f2 2c c2 3c fb aa 0e bd
       0.13419506 -0.12328884 0.023703072 -0.03483103
000160 18 be dc 3c 2a 3c dd bc 11 42 76 bd 43 52 e2 bd
       0.026946113 -0.027006228 -0.0601216 -0.110508464
000170 5a b2 f2 3d 41 5c 62 3c 7c 5f b5 3d 08 6c c3 3d
       0.11850424 0.01381594 0.08856103 0.0954209
000180 50 3e e3 3d 91 77 bc bd ae 06 df bd 69 86 98 3d
       0.110958695 -0.09202493 -0.10889946 0.07447512
000190 95 cf e4 3d 0a 32 d0 3d 88 48 9b 3d 90 cd 74 bd
       0.11172406 0.10165794 0.075821936 -0.059766352
0001a0 73 67 15 be ef 51 17 be c8 16 97 3d 40 d9 fc 3d
       -0.14590244 -0.14777349 0.07377392 0.12346125
0001b0 5e 53 5c 3d 3b 57 09 be f8 49 cc 3d ec f0 64 3d
       0.053790443 -0.13412182 0.09975046 0.055893824
0001c0 1d 23 e4 3d 56 6a 87 bd 92 93 fd bc e8 10 89 bd
       0.1113951 -0.06612079 -0.030954156 -0.06692678
0001d0 ec bb 26 bd e3 a8 a1 3d 56 74 f3 bd 09 c2 fe 3d
       -0.04070656 0.07893541 -0.11887424 0.12439353
0001e0 2e 6e 88 3b b9 44 9a bd fe 1b bb bd f6 1d 82 bd
       0.004163525 -0.07532639 -0.091361985 -0.06353371
0001f0 7d 9b bd 3d c2 92 8d 3c 46 30 f2 bc 91 5f 09 3d
       0.09258173 0.017281894 -0.029564034 0.033538405
000200 11 56 b8 3d 5a 09 1b 3d c9 47 f7 3d 7c 54 0d bd
       0.09000791 0.037850715 0.12074239 -0.0345044
000210 08 48 6d 3d 4a 62 2c 3d 4f 1e 61 3c f2 90 ab 3d
       0.057930022 0.042085923 0.013740136 0.083772555
000220 a4 1d 11 3d 04 ca 9e bd 6d eb 63 3c 1b af 34 bd
       0.035428658 -0.07753375 0.01391111 -0.044112306
000230 3e a2 d3 bd b9 40 11 3e eb f0 96 3d 02 d4 dd bc
       -0.103336796 0.14184846 0.0737017 -0.027078632
000240 4c d9 8f bc 4e db f2 bd 6f 5f bf bd f8 3d 47 3c
       -0.01755967 -0.11858235 -0.093443744 0.012160771
000250 42 a4 f4 3c bc 59 84 bc e7 1d d0 3b ca 61 bd bc
       0.02986348 -0.01615607 0.006351221 -0.023117919
000260 2a 05 ab 3d 5a 29 52 3d e8 1e 82 3d 95 c4 0a 3e
       0.08350594 0.051308967 0.06353551 0.13551553
000270 de bd bc 3d 93 4b 1e bd 08 5e 43 be 32 58 02 3e
       0.09215902 -0.038646292 -0.19078839 0.12728956
000280 84 2d c8 bd c2 e0 21 3d 9e e0 9d 3c 3c d2 ad 3d
       -0.097743064 0.039520986 0.019272145 0.08487365
000290 f0 12 a6 bd 38 cf fb 3d 20 6d 25 3d af 7c 0c be
       -0.08109081 0.12295383 0.040387273 -0.13719438
0002a0 67 e0 19 bd e5 bb af 3d 5a 0c e5 bb 06 cc 39 bd
       -0.037567522 0.0858076 -0.006989998 -0.045360588
0002b0 5e 09 09 3d 9e f6 21 be 36 a7 3f bd 37 e2 a2 bd
       0.0334562 -0.15816733 -0.046790324 -0.07953303
0002c0 97 89 51 3d 5a 59 0a 3d 6e 80 b4 bd 46 70 a6 3d
       0.051156607 0.03377662 -0.088135585 0.08126883
0002d0 49 e5 d2 ba fc 9c a6 bd 1c 6a 1e be 37 ba 5b bb
       -0.0016090061 -0.08135411 -0.15470165 -0.003352774
0002e0 a7 18 bf bb 91 a4 45 bd 18 79 39 be e1 ce 28 be
       -0.005831796 -0.048252646 -0.181126 -0.16485168
0002f0 85 92 04 be 04 99 a0 3d 28 24 cd bc 02 c7 0c be
       -0.12946518 0.078416854 -0.025041655 -0.1374779
000300 10 63 a5 3d f7 01 ff bc b3 f4 01 be 0e 8f 12 be
       0.08075535 -0.031128867 -0.12691002 -0.14312384
000310 50 f1 1f be 9a 1d 27 bd 9f 07 09 3e 26 98 88 3d
       -0.15619397 -0.040799715 0.13381813 0.06669645
000320 94 f7 25 3e e7 c8 0b 3e c9 b4 0c be c8 b5 01 3e
       0.16207725 0.13650857 -0.13740839 0.12667
000330 ef 58 70 bd d3 b0 f9 bb 38 8b 1e 3d 28 3e df bc
       -0.058678564 -0.007619956 0.038706988 -0.027251318
000340 c3 eb 7b bd 38 01 83 3d 05 37 c1 bd bf e8 65 3c
       -0.061504137 0.06396717 -0.09434322 0.014032542
000350 e5 96 fe 3d 71 d3 f3 bd fa 7e ac 3c c9 5d 03 3d
       0.124311246 -0.119055636 0.02105664 0.032071862
000360 e0 90 c8 bd b1 6b c3 bc 2a a2 a6 bd 43 2e 8b 39
       -0.09793258 -0.023855062 -0.08136399 0.00026546614
000370 e8 7a 24 bb 55 d0 8d 3d 16 5d 55 bd df 64 55 bc
       -0.0025097672 0.06924502 -0.052090727 -0.013024538
000380 79 33 83 bd b2 c9 98 bc 75 38 b9 bd b6 56 82 3d
       -0.06406302 -0.018650863 -0.090439714 0.06364195
000390 e4 06 84 3d 57 d4 db bd 59 90 c4 bc 7f 93 e4 bd
       0.06446627 -0.1073386 -0.023994612 -0.11160945
0003a0 d3 72 00 bc 8a 69 9f bd 83 21 64 bd 22 6c de bb
       -0.007839876 -0.07783802 -0.05569602 -0.006787793
0003b0 e8 2d 9f bd f0 fc 02 be 39 b5 8a bc ca 44 cb bb
       -0.07772428 -0.127918 -0.016932117 -0.0062032687
0003c0 6a 2f 84 bd a1 39 c7 bd 2a 30 12 be fe 8d dd 3d
       -0.06454356 -0.09727789 -0.14276186 0.108180985
0003d0 aa 03 19 bc a2 15 88 bd 1a 14 3e bd b2 28 eb bd
       -0.0093392525 -0.06644751 -0.04640589 -0.114823714
0003e0 b8 6e 28 be d2 d9 81 3d c9 26 9e 3c 81 aa db bd
       -0.16448486 0.06340374 0.019305604 -0.107258804
0003f0 dc 50 f8 bb 8a 8a b3 bd 60 22 7b bd 3e a8 38 be
       -0.0075779986 -0.087666586 -0.06131208 -0.1803293

lstm.bias_ih_l1 f4 [256]
000000 8e 4c 53 3e d2 89 a4 bd 23 aa 28 3d 41 a6 9f bb
       0.20634672 -0.080341 0.04117788 -0.004872114
000010 cb 59 96 3d b0 92 51 3d 8d 1a e4 3c f7 9b 60 3d
       0.073413454 0.051165283 0.027844692 0.05483624
000020 da 37 41 3d ca 7a 35 bd 66 da 0a bd b2 a2 17 3e
       0.047172405 -0.044306554 -0.033899687 0.14808157
000030 9b 29 72 3d 1f d3 f2 bc 08 69 ef bb f7 68 00 be
       0.05912171 -0.029641686 -0.007306222 -0.12540041
000040 2b 29 e1 3d d2 97 19 3e 2c 91 d5 3d 42 d7 38 3e
       0.1099418 0.14999321 0.1042808 0.18050864
000050 d1 4e 32 3d 82 4f b9 bc e3 e6 06 3e 99 e7 67 bb
       0.043532196 -0.02262092 0.13174014 -0.0035385846
000060 ea 7f 2a 3e 2b c1 b8 3d f6 e4 46 bd 6d 50 17 3e
       0.16650358 0.09021219 -0.048558198 0.14776774
000070 fd 14 83 3c f8 1b 5c 3d 6e 98 4c 3e e9 96 1f bd
       0.016001219 0.05373761 0.19980022 -0.03896228
000080 b5 e4 e7 3d b6 d9 d3 3d 20 89 02 3d 27 f9 0f 3e
       0.11322919 0.103442594 0.031869054 0.14059888
000090 0e 81 7b 3d 6f 80 01 bd 34 cf b9 bd 65 bd bf 3d
       0.061402373 -0.031616624 -0.09072724 0.09362296
0000a0 e6 83 ba 3d ab 32 08 3c c2 ce 59 3e f3 2c 0e 3e
       0.09107189 0.008312861 0.21270278 0.13884334
0000b0 0b af d4 3d 0f b8 e1 3d 7e 69 7b bb e7 a9 1b 3d
       0.10384949 0.110214345 -0.0038362439 0.03800383
0000c0 f8 5f e0 bb 00 87 84 3d 97 89 1d 3e cd 8f e9 3c
       -0.006847378 0.06471062 0.15384518 0.028510952
0000d0 8b de bc 3d 0c 05 9e bc 1d e6 4e 3d cb ef a9 3d
       0.09222134 -0.019289516 0.050512422 0.0829769
0000e0 ad ff 00 3e ec 60 87 bd 59 60 6c 3d 76 ba 09 3c
       0.12597533 -0.06610283 0.05770907 0.008406272
0000f0 6e f0 8c 3d 98 10 b8 3c 2d 15 02 3e 1a 60 92 3d
       0.06881796 0.02246885 0.1270339 0.07147236
000100 87 39 62 bc fe c8 a6 bb 78 e9 ff 3d d7 c7 dc 3d
       -0.013807661 -0.005089878 0.124957025 0.10780304
000110 44 21 28 3c a8 97 b9 3d 87 70 19 3e dc 81 f2 3d
       0.010261837 0.09062129 0.14984332 0.11841175
000120 05 21 f1 3d cc 81 db bc f3 63 a6 3c 53 fe 10 3a
       0.11773876 -0.02679529 0.020311331 0.00055310613
000130 f9 60 74 bd 55 77 9e 3d 97 d6 a0 3d 1b 8e a4 3d
       -0.059662793 0.077376045 0.0785343 0.08034917
000140 c6 be 32 3c 87 1e 2d bc 20 66 eb 3d 00 7b d7 3c
       0.010909742 -0.01056636 0.11494088 0.026303768
000150 cd df 93 3d 10 a2 bb 3d 2a 91 7a 3d b0 1f 30 3e
       0.07220421 0.0916177 0.061173595 0.17199588
000160 5e 67 18 3d df b4 04 bd 70 85 2a 3d 48 3c 91 bd
       0.037207954 -0.032399055 0.041631162 -0.07091576
000170 b4 62 ca bd af 8b ea 3d 37 f9 e4 bc 4d 59 b0 3d
       -0.098821074 0.11452424 -0.027950866 0.08610783
000180 30 a1 ff 3d f4 64 78 bc 34 f0 f5 3d 5b ce 3d 3e
       0.12481916 -0.015160788 0.12008706 0.1853575
000190 5d 15 db 3d 8f cc 32 bd 8a 7f 0c 3d 8c 69 8e 3d
       0.10697434 -0.043652114 0.03430132 0.06953725
0001a0 ac 87 a1 bb be 06 38 bd 37 a2 60 bd 45 53 23 bd
       -0.0049295034 -0.044928305 -0.0548422 -0.039874334
0001b0 bc 86 3c 3e e9 c5 34 3d c2 dc a6 3d 84 d0 9b 3d
       0.18410772 0.044134054 0.08147575 0.076081306
0001c0 e1 94 09 bd c6 74 65 bd 39 7f c5 3d 08 45 56 bd
       -0.033589248 -0.056019567 0.096434064 -0.052311927
0001d0 80 0d aa bd 48 6f 59 3d 51 ea 82 3d 8f 2b 36 bd
       -0.08303356 0.05308464 0.063923486 -0.044475134
0001e0 78 88 94 3d e5 a1 ca bc 45 d3 f3 bc 1e 26 61 bd
       0.07252592 -0.0247354 -0.029763827 -0.054967992
0001f0 1b 48 b2 bd e9 8b 0e bd dd fb 78 3d f1 76 f4 3d
       -0.08705159 -0.034801397 0.06078707 0.11936749
000200 f9 a9 86 bd fb 8f 45 bd a2 67 ce 3d 14 a3 98 bd
       -0.065753885 -0.048233014 0.1007836 -0.0745298
000210 a8 4f 96 bd a1 08 bc bc 72 89 87 3d 67 ab eb bd
       -0.07339412 -0.022953333 0.066180125 -0.11507302
000220 4e bc 83 3d b2 73 9a 3d 91 7c 49 bd 8b 84 7d 3d
       0.06432401 0.075415984 -0.04919106 0.06189398
000230 f0 bc ec bd 21 7f 66 3d f9 f4 69 3d b8 d0 bc 3d
       -0.115594745 0.056273583 0.05711839 0.092194974
000240 19 60 71 3c 86 b5 8d bd 56 5f 9a 3d db 78 14 3d
       0.014732384 -0.069193885 0.07537715 0.03624807
000250 64 63 fb bd 14 73 c6 3d d8 08 ab bd 35 2e 9d 3d
       -0.12274817 0.09689918 -0.08351296 0.07674829
000260 21 fd 3f 3c 8b 54 2d 3e cc 45 27 bd 90 0b 17 3e
       0.0117180655 0.16926782 -0.040838048 0.14750504
000270 a1 61 3c bd eb de 16 be bb 0c 1e 3d c7 33 08 3e
       -0.045991544 -0.14733474 0.03858636 0.13301001
000280 e0 b5 88 bd 3c 38 82 3c e7 58 12 bc bc da 19 3e
       -0.06675315 0.015895955 -0.008932329 0.15024847
000290 50 b5 07 3e 98 a7 8c 3d 83 90 50 bc 67 80 1d 3d
       0.13252759 0.068679035 -0.012729767 0.038452532
0002a0 2d 4d ed 3c 62 b6 c4 3d 9c 7f d6 bc 66 57 ef bd
       0.028967464 0.09605099 -0.026183896 -0.11686592
0002b0 0b f4 06 3e 9d e9 01 be 8a 28 bc bc fa c0 36 bb
       0.13179033 -0.12686773 -0.02296855 -0.002788602
0002c0 b7 01 8e bd ea 43 9b 3d ad b0 8c bd bd 46 dc 3d
       -0.06933921 0.07581313 -0.06869636 0.1075568
0002d0 bb 67 a3 3c 22 3c c8 3d 40 b2 a6 bd ed 0a b4 bd
       0.019946923 0.097770944 -0.08139467 -0.087911464
0002e0 2d f6 0e be 1e d6 b3 3c cc 32 13 be 86 6f b3 bc
       -0.13961096 0.021952685 -0.14374846 -0.021903764
0002f0 f4 cb ed 3d 93 15 ed 3c 32 72 f9 bc 80 53 c4 bc
       0.116111666 0.028940951 -0.03044996 -0.023965597
000300 3e c2 88 bc 28 76 ac 39 64 1c 0f 3e ec 5f d7 3d
       -0.016694184 0.0003289443 0.13975674 0.105163425
000310 5c af e4 3d 33 a9 4c 3d 5f 45 56 3d 85 fa ea 3d
       0.1116626 0.04996605 0.05231225 0.11473564
000320 23 85 0b 3c 01 b9 33 bd 00 55 d3 3d a7 8a 31 3e
       0.008515629 -0.043877605 0.10318947 0.17338048
000330 f1 71 6d bb 96 fa 2d 3e a1 aa 01 3e ce 38 49 bd
       -0.0036231244 0.16990122 0.12662746 -0.04912644
000340 92 c0 a6 3c be e9 4d 3e 08 c8 ac 3d 98 b9 3a 3e
       0.020355497 0.20108697 0.084365904 0.18234861
000350 55 4a 37 3e 90 c0 ab 3d e5 b1 b2 3d 45 63 96 bd
       0.17899449 0.08386338 0.08725337 -0.07343153
000360 31 66 c0 3c b3 d6 00 3e 21 7b 6f 3d 39 ec a3 bc
       0.023486229 0.12581901 0.058467034 -0.0200101
000370 1e bf c2 3d 1f dd d7 3d 73 57 26 3e bf 6b aa 39
       0.09509109 0.105402224 0.16244297 0.00032505204
000380 30 8c 4d 3d 41 b0 33 3e ee b8 37 3d df d5 eb bc
       0.05018252 0.17547704 0.044854097 -0.028788505
000390 b6 eb a8 bc cd 33 06 3d 85 f4 87 bc 63 ba 27 3c
       -0.020620208 0.032764245 -0.016596088 0.010237309
0003a0 06 81 f2 3d 22 cd ed 3d 1d 4c 93 3d 54 73 e8 3b
       0.118410155 0.116113916 0.07192252 0.0070938263
0003b0 b2 50 19 3e d1 3f 0f 3e 29 9f cc 3b c8 09 3a 3d
       0.14972189 0.13989188 0.0062445593 0.045419484
0003c0 be 80 fb bc cf 2e c7 3d 44 8f e1 3d 67 1b dc 3d
       -0.030701037 0.09725725 0.11013654 0.10747414
0003d0 34 71 15 3e 21 c0 5d 3d c0 80 0d 3e a0 9c 27 3e
       0.14593965 0.054138307 0.13818645 0.16368341
0003e0 c3 3d 4f 3e 68 e5 22 3e dd 8b a6 3d 6e bd 5b bd
       0.20238404 0.15907824 0.081321456 -0.05364745
0003f0 51 21 11 3e a3 ce fb 3c 33 ce 19 3d fd cf b1 3d
       0.14172865 0.03073818 0.037550163 0.08682249
